…
  MARGIN: 0.3
  MAX_EPOCHS: 50
  MOMENTUM: 0.9
  OPTIMIZER_NAME: Adam
  RANGE_ALPHA: 0
  RANGE_BETA: 1
  RANGE_K: 2
  RANGE_LOSS_WEIGHT: 1
  RANGE_MARGIN: 0.3
  SEED: 1111
  STEPS: (40, 70)
  WARMUP_FACTOR: 0.01
  WARMUP_ITERS: 10
  WARMUP_METHOD: linear
  WEIGHT_DECAY: 0.0001
  WEIGHT_DECAY_BIAS: 0.0001
TEST:
  FEAT: 0
  FEAT_NORM: yes
  IMS_PER_BATCH: 128
  MISS: nothing
  NECK_FEAT: before
  RE_RANKING: yes
  WEIGHT: 
2025-05-31 15:24:49,732 DeMo INFO: combineway: adaptiveboqdeform
2025-05-31 15:24:50,357 DeMo INFO: DeMo(
  (BACKBONE): build_transformer(
    (base): VisionTransformer(
      (conv1): Conv2d(3, 768, kernel_size=(16, 16), stride=(16, 16), bias=False)
      (ln_pre): LayerNorm((768,), eps=1e-05, elementwise_affine=True)
      (transformer): Transformer(
        (resblocks): Sequential(
          (0): ResidualAttentionBlock(
            (attn): MultiheadAttention(
              (out_proj): NonDynamicallyQuantizableLinear(in_features=768, out_features=768, bias=True)
            )
            (ln_1): LayerNorm((768,), eps=1e-05, elementwise_affine=True)
            (mlp): Sequential(
              (c_fc): Linear(in_features=768, out_features=3072, bias=True)
              (gelu): QuickGELU()
              (c_proj): Linear(in_features=3072, out_features=768, bias=True)
            )
            (ln_2): LayerNorm((768,), eps=1e-05, elementwise_affine=True)
          )
          (1): ResidualAttentionBlock(
            (attn): MultiheadAttention(
              (out_proj): NonDynamicallyQuantizableLinear(in_features=768, out_features=768, bias=True)
            )
            (ln_1): LayerNorm((768,), eps=1e-05, elementwise_affine=True)
            (mlp): Sequential(
              (c_fc): Linear(in_features=768, out_features=3072, bias=True)
              (gelu): QuickGELU()
              (c_proj): Linear(in_features=3072, out_features=768, bias=True)
            )
            (ln_2): LayerNorm((768,), eps=1e-05, elementwise_affine=True)
          )
          (2): ResidualAttentionBlock(
            (attn): MultiheadAttention(
              (out_proj): NonDynamicallyQuantizableLinear(in_features=768, out_features=768, bias=True)
            )
            (ln_1): LayerNorm((768,), eps=1e-05, elementwise_affine=True)
            (mlp): Sequential(
              (c_fc): Linear(in_features=768, out_features=3072, bias=True)
              (gelu): QuickGELU()
              (c_proj): Linear(in_features=3072, out_features=768, bias=True)
            )
            (ln_2): LayerNorm((768,), eps=1e-05, elementwise_affine=True)
          )
          (3): ResidualAttentionBlock(
            (attn): MultiheadAttention(
              (out_proj): NonDynamicallyQuantizableLinear(in_features=768, out_features=768, bias=True)
            )
            (ln_1): LayerNorm((768,), eps=1e-05, elementwise_affine=True)
            (mlp): Sequential(
              (c_fc): Linear(in_features=768, out_features=3072, bias=True)
              (gelu): QuickGELU()
              (c_proj): Linear(in_features=3072, out_features=768, bias=True)
            )
            (ln_2): LayerNorm((768,), eps=1e-05, elementwise_affine=True)
          )
          (4): ResidualAttentionBlock(
            (attn): MultiheadAttention(
              (out_proj): NonDynamicallyQuantizableLinear(in_features=768, out_features=768, bias=True)
            )
            (ln_1): LayerNorm((768,), eps=1e-05, elementwise_affine=True)
            (mlp): Sequential(
              (c_fc): Linear(in_features=768, out_features=3072, bias=True)
              (gelu): QuickGELU()
              (c_proj): Linear(in_features=3072, out_features=768, bias=True)
            )
            (ln_2): LayerNorm((768,), eps=1e-05, elementwise_affine=True)
          )
          (5): ResidualAttentionBlock(
            (attn): MultiheadAttention(
              (out_proj): NonDynamicallyQuantizableLinear(in_features=768, out_features=768, bias=True)
            )
            (ln_1): LayerNorm((768,), eps=1e-05, elementwise_affine=True)
            (mlp): Sequential(
              (c_fc): Linear(in_features=768, out_features=3072, bias=True)
              (gelu): QuickGELU()
              (c_proj): Linear(in_features=3072, out_features=768, bias=True)
            )
            (ln_2): LayerNorm((768,), eps=1e-05, elementwise_affine=True)
          )
          (6): ResidualAttentionBlock(
            (attn): MultiheadAttention(
              (out_proj): NonDynamicallyQuantizableLinear(in_features=768, out_features=768, bias=True)
            )
            (ln_1): LayerNorm((768,), eps=1e-05, elementwise_affine=True)
            (mlp): Sequential(
              (c_fc): Linear(in_features=768, out_features=3072, bias=True)
              (gelu): QuickGELU()
              (c_proj): Linear(in_features=3072, out_features=768, bias=True)
            )
            (ln_2): LayerNorm((768,), eps=1e-05, elementwise_affine=True)
          )
          (7): ResidualAttentionBlock(
            (attn): MultiheadAttention(
              (out_proj): NonDynamicallyQuantizableLinear(in_features=768, out_features=768, bias=True)
            )
            (ln_1): LayerNorm((768,), eps=1e-05, elementwise_affine=True)
            (mlp): Sequential(
              (c_fc): Linear(in_features=768, out_features=3072, bias=True)
              (gelu): QuickGELU()
              (c_proj): Linear(in_features=3072, out_features=768, bias=True)
            )
            (ln_2): LayerNorm((768,), eps=1e-05, elementwise_affine=True)
          )
          (8): ResidualAttentionBlock(
            (attn): MultiheadAttention(
              (out_proj): NonDynamicallyQuantizableLinear(in_features=768, out_features=768, bias=True)
            )
            (ln_1): LayerNorm((768,), eps=1e-05, elementwise_affine=True)
            (mlp): Sequential(
              (c_fc): Linear(in_features=768, out_features=3072, bias=True)
              (gelu): QuickGELU()
              (c_proj): Linear(in_features=3072, out_features=768, bias=True)
            )
            (ln_2): LayerNorm((768,), eps=1e-05, elementwise_affine=True)
          )
          (9): ResidualAttentionBlock(
            (attn): MultiheadAttention(
              (out_proj): NonDynamicallyQuantizableLinear(in_features=768, out_features=768, bias=True)
            )
            (ln_1): LayerNorm((768,), eps=1e-05, elementwise_affine=True)
            (mlp): Sequential(
              (c_fc): Linear(in_features=768, out_features=3072, bias=True)
              (gelu): QuickGELU()
              (c_proj): Linear(in_features=3072, out_features=768, bias=True)
            )
            (ln_2): LayerNorm((768,), eps=1e-05, elementwise_affine=True)
          )
          (10): ResidualAttentionBlock(
            (attn): MultiheadAttention(
              (out_proj): NonDynamicallyQuantizableLinear(in_features=768, out_features=768, bias=True)
            )
            (ln_1): LayerNorm((768,), eps=1e-05, elementwise_affine=True)
            (mlp): Sequential(
              (c_fc): Linear(in_features=768, out_features=3072, bias=True)
              (gelu): QuickGELU()
              (c_proj): Linear(in_features=3072, out_features=768, bias=True)
            )
            (ln_2): LayerNorm((768,), eps=1e-05, elementwise_affine=True)
          )
          (11): ResidualAttentionBlock(
            (attn): MultiheadAttention(
              (out_proj): NonDynamicallyQuantizableLinear(in_features=768, out_features=768, bias=True)
            )
            (ln_1): LayerNorm((768,), eps=1e-05, elementwise_affine=True)
            (mlp): Sequential(
              (c_fc): Linear(in_features=768, out_features=3072, bias=True)
              (gelu): QuickGELU()
              (c_proj): Linear(in_features=3072, out_features=768, bias=True)
            )
            (ln_2): LayerNorm((768,), eps=1e-05, elementwise_affine=True)
          )
        )
      )
      (ln_post): LayerNorm((768,), eps=1e-05, elementwise_affine=True)
    )
  )
  (generalFusion): GeneralFusion(
    (modalityboq): ModalitySpecificBoQ(
      (single_modal_boq): AdaptiveBoQ(
        (norm_input): LayerNorm((512,), eps=1e-05, elementwise_affine=True)
        (pos_encoding): PositionalEncoding()
        (boqs): ModuleList(
          (0): ImprovedBoQBlock(
            (encoder): TransformerEncoderLayer(
              (self_attn): MultiheadAttention(
                (out_proj): NonDynamicallyQuantizableLinear(in_features=512, out_features=512, bias=True)
              )
              (linear1): Linear(in_features=512, out_features=2048, bias=True)
              (dropout): Dropout(p=0.0, inplace=False)
              (linear2): Linear(in_features=2048, out_features=512, bias=True)
              (norm1): LayerNorm((512,), eps=1e-05, elementwise_affine=True)
              (norm2): LayerNorm((512,), eps=1e-05, elementwise_affine=True)
              (dropout1): Dropout(p=0.0, inplace=False)
              (dropout2): Dropout(p=0.0, inplace=False)
            )
            (query_projection): Linear(in_features=512, out_features=512, bias=True)
            (self_attn): MultiheadAttention(
              (out_proj): NonDynamicallyQuantizableLinear(in_features=512, out_features=512, bias=True)
            )
            (norm_q): LayerNorm((512,), eps=1e-05, elementwise_affine=True)
            (cross_attn): MultiheadAttention(
              (out_proj): NonDynamicallyQuantizableLinear(in_features=512, out_features=512, bias=True)
            )
            (norm_out): LayerNorm((512,), eps=1e-05, elementwise_affine=True)
          )
          (1): ImprovedBoQBlock(
            (encoder): TransformerEncoderLayer(
              (self_attn): MultiheadAttention(
                (out_proj): NonDynamicallyQuantizableLinear(in_features=512, out_features=512, bias=True)
              )
              (linear1): Linear(in_features=512, out_features=2048, bias=True)
              (dropout): Dropout(p=0.0, inplace=False)
              (linear2): Linear(in_features=2048, out_features=512, bias=True)
              (norm1): LayerNorm((512,), eps=1e-05, elementwise_affine=True)
              (norm2): LayerNorm((512,), eps=1e-05, elementwise_affine=True)
              (dropout1): Dropout(p=0.0, inplace=False)
              (dropout2): Dropout(p=0.0, inplace=False)
            )
            (query_projection): Linear(in_features=512, out_features=512, bias=True)
            (query_adapter): Linear(in_features=64, out_features=57, bias=True)
            (self_attn): MultiheadAttention(
              (out_proj): NonDynamicallyQuantizableLinear(in_features=512, out_features=512, bias=True)
            )
            (norm_q): LayerNorm((512,), eps=1e-05, elementwise_affine=True)
            (cross_attn): MultiheadAttention(
              (out_proj): NonDynamicallyQuantizableLinear(in_features=512, out_features=512, bias=True)
            )
            (norm_out): LayerNorm((512,), eps=1e-05, elementwise_affine=True)
          )
          (2): ImprovedBoQBlock(
            (encoder): TransformerEncoderLayer(
              (self_attn): MultiheadAttention(
                (out_proj): NonDynamicallyQuantizableLinear(in_features=512, out_features=512, bias=True)
              )
              (linear1): Linear(in_features=512, out_features=2048, bias=True)
              (dropout): Dropout(p=0.0, inplace=False)
              (linear2): Linear(in_features=2048, out_features=512, bias=True)
              (norm1): LayerNorm((512,), eps=1e-05, elementwise_affine=True)
              (norm2): LayerNorm((512,), eps=1e-05, elementwise_affine=True)
              (dropout1): Dropout(p=0.0, inplace=False)
              (dropout2): Dropout(p=0.0, inplace=False)
            )
            (query_projection): Linear(in_features=512, out_features=512, bias=True)
            (query_adapter): Linear(in_features=57, out_features=51, bias=True)
            (self_attn): MultiheadAttention(
              (out_proj): NonDynamicallyQuantizableLinear(in_features=512, out_features=512, bias=True)
            )
            (norm_q): LayerNorm((512,), eps=1e-05, elementwise_affine=True)
            (cross_attn): MultiheadAttention(
              (out_proj): NonDynamicallyQuantizableLinear(in_features=512, out_features=512, bias=True)
            )
            (norm_out): LayerNorm((512,), eps=1e-05, elementwise_affine=True)
          )
          (3): ImprovedBoQBlock(
            (encoder): TransformerEncoderLayer(
              (self_attn): MultiheadAttention(
                (out_proj): NonDynamicallyQuantizableLinear(in_features=512, out_features=512, bias=True)
              )
              (linear1): Linear(in_features=512, out_features=2048, bias=True)
              (dropout): Dropout(p=0.0, inplace=False)
              (linear2): Linear(in_features=2048, out_features=512, bias=True)
              (norm1): LayerNorm((512,), eps=1e-05, elementwise_affine=True)
              (norm2): LayerNorm((512,), eps=1e-05, elementwise_affine=True)
              (dropout1): Dropout(p=0.0, inplace=False)
              (dropout2): Dropout(p=0.0, inplace=False)
            )
            (query_projection): Linear(in_features=512, out_features=512, bias=True)
            (query_adapter): Linear(in_features=51, out_features=44, bias=True)
            (self_attn): MultiheadAttention(
              (out_proj): NonDynamicallyQuantizableLinear(in_features=512, out_features=512, bias=True)
            )
            (norm_q): LayerNorm((512,), eps=1e-05, elementwise_affine=True)
            (cross_attn): MultiheadAttention(
              (out_proj): NonDynamicallyQuantizableLinear(in_features=512, out_features=512, bias=True)
            )
            (norm_out): LayerNorm((512,), eps=1e-05, elementwise_affine=True)
          )
        )
        (adaptive_fusion): AdaptiveFusion(
          (attention_net): Sequential(
            (0): Linear(in_features=512, out_features=128, bias=True)
            (1): ReLU()
            (2): Linear(in_features=128, out_features=1, bias=True)
          )
          (final_proj): Linear(in_features=216, out_features=1, bias=True)
        )
      )
      (dual_modal_boq): AdaptiveBoQ(
        (norm_input): LayerNorm((512,), eps=1e-05, elementwise_affine=True)
        (pos_encoding): PositionalEncoding()
        (boqs): ModuleList(
          (0): ImprovedBoQBlock(
            (encoder): TransformerEncoderLayer(
              (self_attn): MultiheadAttention(
                (out_proj): NonDynamicallyQuantizableLinear(in_features=512, out_features=512, bias=True)
              )
              (linear1): Linear(in_features=512, out_features=2048, bias=True)
              (dropout): Dropout(p=0.0, inplace=False)
              (linear2): Linear(in_features=2048, out_features=512, bias=True)
              (norm1): LayerNorm((512,), eps=1e-05, elementwise_affine=True)
              (norm2): LayerNorm((512,), eps=1e-05, elementwise_affine=True)
              (dropout1): Dropout(p=0.0, inplace=False)
              (dropout2): Dropout(p=0.0, inplace=False)
            )
            (query_projection): Linear(in_features=512, out_features=512, bias=True)
            (self_attn): MultiheadAttention(
              (out_proj): NonDynamicallyQuantizableLinear(in_features=512, out_features=512, bias=True)
            )
            (norm_q): LayerNorm((512,), eps=1e-05, elementwise_affine=True)
            (cross_attn): MultiheadAttention(
              (out_proj): NonDynamicallyQuantizableLinear(in_features=512, out_features=512, bias=True)
            )
            (norm_out): LayerNorm((512,), eps=1e-05, elementwise_affine=True)
          )
          (1): ImprovedBoQBlock(
            (encoder): TransformerEncoderLayer(
              (self_attn): MultiheadAttention(
                (out_proj): NonDynamicallyQuantizableLinear(in_features=512, out_features=512, bias=True)
              )
              (linear1): Linear(in_features=512, out_features=2048, bias=True)
              (dropout): Dropout(p=0.0, inplace=False)
              (linear2): Linear(in_features=2048, out_features=512, bias=True)
              (norm1): LayerNorm((512,), eps=1e-05, elementwise_affine=True)
              (norm2): LayerNorm((512,), eps=1e-05, elementwise_affine=True)
              (dropout1): Dropout(p=0.0, inplace=False)
              (dropout2): Dropout(p=0.0, inplace=False)
            )
            (query_projection): Linear(in_features=512, out_features=512, bias=True)
            (query_adapter): Linear(in_features=76, out_features=68, bias=True)
            (self_attn): MultiheadAttention(
              (out_proj): NonDynamicallyQuantizableLinear(in_features=512, out_features=512, bias=True)
            )
            (norm_q): LayerNorm((512,), eps=1e-05, elementwise_affine=True)
            (cross_attn): MultiheadAttention(
              (out_proj): NonDynamicallyQuantizableLinear(in_features=512, out_features=512, bias=True)
            )
            (norm_out): LayerNorm((512,), eps=1e-05, elementwise_affine=True)
          )
          (2): ImprovedBoQBlock(
            (encoder): TransformerEncoderLayer(
              (self_attn): MultiheadAttention(
                (out_proj): NonDynamicallyQuantizableLinear(in_features=512, out_features=512, bias=True)
              )
              (linear1): Linear(in_features=512, out_features=2048, bias=True)
              (dropout): Dropout(p=0.0, inplace=False)
              (linear2): Linear(in_features=2048, out_features=512, bias=True)
              (norm1): LayerNorm((512,), eps=1e-05, elementwise_affine=True)
              (norm2): LayerNorm((512,), eps=1e-05, elementwise_affine=True)
              (dropout1): Dropout(p=0.0, inplace=False)
              (dropout2): Dropout(p=0.0, inplace=False)
            )
            (query_projection): Linear(in_features=512, out_features=512, bias=True)
            (query_adapter): Linear(in_features=68, out_features=60, bias=True)
            (self_attn): MultiheadAttention(
              (out_proj): NonDynamicallyQuantizableLinear(in_features=512, out_features=512, bias=True)
            )
            (norm_q): LayerNorm((512,), eps=1e-05, elementwise_affine=True)
            (cross_attn): MultiheadAttention(
              (out_proj): NonDynamicallyQuantizableLinear(in_features=512, out_features=512, bias=True)
            )
            (norm_out): LayerNorm((512,), eps=1e-05, elementwise_affine=True)
          )
          (3): ImprovedBoQBlock(
            (encoder): TransformerEncoderLayer(
              (self_attn): MultiheadAttention(
                (out_proj): NonDynamicallyQuantizableLinear(in_features=512, out_features=512, bias=True)
              )
              (linear1): Linear(in_features=512, out_features=2048, bias=True)
              (dropout): Dropout(p=0.0, inplace=False)
              (linear2): Linear(in_features=2048, out_features=512, bias=True)
              (norm1): LayerNorm((512,), eps=1e-05, elementwise_affine=True)
              (norm2): LayerNorm((512,), eps=1e-05, elementwise_affine=True)
              (dropout1): Dropout(p=0.0, inplace=False)
              (dropout2): Dropout(p=0.0, inplace=False)
            )
            (query_projection): Linear(in_features=512, out_features=512, bias=True)
            (query_adapter): Linear(in_features=60, out_features=53, bias=True)
            (self_attn): MultiheadAttention(
              (out_proj): NonDynamicallyQuantizableLinear(in_features=512, out_features=512, bias=True)
            )
            (norm_q): LayerNorm((512,), eps=1e-05, elementwise_affine=True)
            (cross_attn): MultiheadAttention(
              (out_proj): NonDynamicallyQuantizableLinear(in_features=512, out_features=512, bias=True)
            )
            (norm_out): LayerNorm((512,), eps=1e-05, elementwise_affine=True)
          )
        )
        (adaptive_fusion): AdaptiveFusion(
          (attention_net): Sequential(
            (0): Linear(in_features=512, out_features=128, bias=True)
            (1): ReLU()
            (2): Linear(in_features=128, out_features=1, bias=True)
          )
          (final_proj): Linear(in_features=257, out_features=1, bias=True)
        )
      )
      (triple_modal_boq): AdaptiveBoQ(
        (norm_input): LayerNorm((512,), eps=1e-05, elementwise_affine=True)
        (pos_encoding): PositionalEncoding()
        (boqs): ModuleList(
          (0): ImprovedBoQBlock(
            (encoder): TransformerEncoderLayer(
              (self_attn): MultiheadAttention(
                (out_proj): NonDynamicallyQuantizableLinear(in_features=512, out_features=512, bias=True)
              )
              (linear1): Linear(in_features=512, out_features=2048, bias=True)
              (dropout): Dropout(p=0.0, inplace=False)
              (linear2): Linear(in_features=2048, out_features=512, bias=True)
              (norm1): LayerNorm((512,), eps=1e-05, elementwise_affine=True)
              (norm2): LayerNorm((512,), eps=1e-05, elementwise_affine=True)
              (dropout1): Dropout(p=0.0, inplace=False)
              (dropout2): Dropout(p=0.0, inplace=False)
            )
            (query_projection): Linear(in_features=512, out_features=512, bias=True)
            (self_attn): MultiheadAttention(
              (out_proj): NonDynamicallyQuantizableLinear(in_features=512, out_features=512, bias=True)
            )
            (norm_q): LayerNorm((512,), eps=1e-05, elementwise_affine=True)
            (cross_attn): MultiheadAttention(
              (out_proj): NonDynamicallyQuantizableLinear(in_features=512, out_features=512, bias=True)
            )
            (norm_out): LayerNorm((512,), eps=1e-05, elementwise_affine=True)
          )
          (1): ImprovedBoQBlock(
            (encoder): TransformerEncoderLayer(
              (self_attn): MultiheadAttention(
                (out_proj): NonDynamicallyQuantizableLinear(in_features=512, out_features=512, bias=True)
              )
              (linear1): Linear(in_features=512, out_features=2048, bias=True)
              (dropout): Dropout(p=0.0, inplace=False)
              (linear2): Linear(in_features=2048, out_features=512, bias=True)
              (norm1): LayerNorm((512,), eps=1e-05, elementwise_affine=True)
              (norm2): LayerNorm((512,), eps=1e-05, elementwise_affine=True)
              (dropout1): Dropout(p=0.0, inplace=False)
              (dropout2): Dropout(p=0.0, inplace=False)
            )
            (query_projection): Linear(in_features=512, out_features=512, bias=True)
            (query_adapter): Linear(in_features=96, out_features=86, bias=True)
            (self_attn): MultiheadAttention(
              (out_proj): NonDynamicallyQuantizableLinear(in_features=512, out_features=512, bias=True)
            )
            (norm_q): LayerNorm((512,), eps=1e-05, elementwise_affine=True)
            (cross_attn): MultiheadAttention(
              (out_proj): NonDynamicallyQuantizableLinear(in_features=512, out_features=512, bias=True)
            )
            (norm_out): LayerNorm((512,), eps=1e-05, elementwise_affine=True)
          )
          (2): ImprovedBoQBlock(
            (encoder): TransformerEncoderLayer(
              (self_attn): MultiheadAttention(
                (out_proj): NonDynamicallyQuantizableLinear(in_features=512, out_features=512, bias=True)
              )
              (linear1): Linear(in_features=512, out_features=2048, bias=True)
              (dropout): Dropout(p=0.0, inplace=False)
              (linear2): Linear(in_features=2048, out_features=512, bias=True)
              (norm1): LayerNorm((512,), eps=1e-05, elementwise_affine=True)
              (norm2): LayerNorm((512,), eps=1e-05, elementwise_affine=True)
              (dropout1): Dropout(p=0.0, inplace=False)
              (dropout2): Dropout(p=0.0, inplace=False)
            )
            (query_projection): Linear(in_features=512, out_features=512, bias=True)
            (query_adapter): Linear(in_features=86, out_features=76, bias=True)
            (self_attn): MultiheadAttention(
              (out_proj): NonDynamicallyQuantizableLinear(in_features=512, out_features=512, bias=True)
            )
            (norm_q): LayerNorm((512,), eps=1e-05, elementwise_affine=True)
            (cross_attn): MultiheadAttention(
              (out_proj): NonDynamicallyQuantizableLinear(in_features=512, out_features=512, bias=True)
            )
            (norm_out): LayerNorm((512,), eps=1e-05, elementwise_affine=True)
          )
          (3): ImprovedBoQBlock(
            (encoder): TransformerEncoderLayer(
              (self_attn): MultiheadAttention(
                (out_proj): NonDynamicallyQuantizableLinear(in_features=512, out_features=512, bias=True)
              )
              (linear1): Linear(in_features=512, out_features=2048, bias=True)
              (dropout): Dropout(p=0.0, inplace=False)
              (linear2): Linear(in_features=2048, out_features=512, bias=True)
              (norm1): LayerNorm((512,), eps=1e-05, elementwise_affine=True)
              (norm2): LayerNorm((512,), eps=1e-05, elementwise_affine=True)
              (dropout1): Dropout(p=0.0, inplace=False)
              (dropout2): Dropout(p=0.0, inplace=False)
            )
            (query_projection): Linear(in_features=512, out_features=512, bias=True)
            (query_adapter): Linear(in_features=76, out_features=67, bias=True)
            (self_attn): MultiheadAttention(
              (out_proj): NonDynamicallyQuantizableLinear(in_features=512, out_features=512, bias=True)
            )
            (norm_q): LayerNorm((512,), eps=1e-05, elementwise_affine=True)
            (cross_attn): MultiheadAttention(
              (out_proj): NonDynamicallyQuantizableLinear(in_features=512, out_features=512, bias=True)
            )
            (norm_out): LayerNorm((512,), eps=1e-05, elementwise_affine=True)
          )
        )
        (adaptive_fusion): AdaptiveFusion(
          (attention_net): Sequential(
            (0): Linear(in_features=512, out_features=128, bias=True)
            (1): ReLU()
            (2): Linear(in_features=128, out_features=1, bias=True)
          )
          (final_proj): Linear(in_features=325, out_features=1, bias=True)
        )
      )
    )
    (deformselect): DAttentionEnhanced(
      (modal_gate): Sequential(
        (0): Conv2d(1536, 128, kernel_size=(1, 1), stride=(1, 1))
        (1): ReLU(inplace=True)
        (2): Conv2d(128, 3, kernel_size=(1, 1), stride=(1, 1))
        (3): Sigmoid()
      )
      (conv_offset): Sequential(
        (0): Conv2d(1536, 512, kernel_size=(1, 1), stride=(1, 1))
        (1): GELU(approximate='none')
        (2): Conv2d(512, 512, kernel_size=(4, 4), stride=(2, 2), groups=512)
        (3): GELU(approximate='none')
        (4): Conv2d(512, 2, kernel_size=(1, 1), stride=(1, 1), bias=False)
      )
      (conv_offset_coarse): Sequential(
        (0): Conv2d(1536, 512, kernel_size=(1, 1), stride=(1, 1))
        (1): GELU(approximate='none')
        (2): Conv2d(512, 512, kernel_size=(6, 6), stride=(2, 2), padding=(1, 1), groups=512)
        (3): GELU(approximate='none')
        (4): Conv2d(512, 2, kernel_size=(1, 1), stride=(1, 1), bias=False)
      )
      (conv_offset_fine): Sequential(
        (0): Conv2d(1536, 512, kernel_size=(1, 1), stride=(1, 1))
        (1): GELU(approximate='none')
        (2): Conv2d(512, 512, kernel_size=(2, 2), stride=(2, 2), groups=512)
        (3): GELU(approximate='none')
        (4): Conv2d(512, 2, kernel_size=(1, 1), stride=(1, 1), bias=False)
      )
      (proj_q): Conv2d(512, 512, kernel_size=(1, 1), stride=(1, 1))
      (proj_k): Conv2d(512, 512, kernel_size=(1, 1), stride=(1, 1))
      (proj_v): Conv2d(512, 512, kernel_size=(1, 1), stride=(1, 1))
      (proj_out): Conv2d(512, 512, kernel_size=(1, 1), stride=(1, 1))
      (proj_drop): Dropout(p=0.0, inplace=False)
      (attn_drop): Dropout(p=0.0, inplace=False)
    )
  )
  (classifier_moe): Linear(in_features=3584, out_features=171, bias=False)
  (bottleneck_moe): BatchNorm1d(3584, eps=1e-05, momentum=0.1, affine=True, track_running_stats=True)
  (classifier): Linear(in_features=1536, out_features=171, bias=False)
  (bottleneck): BatchNorm1d(1536, eps=1e-05, momentum=0.1, affine=True, track_running_stats=True)
)
2025-05-31 15:24:50,359 DeMo INFO: number of parameters:157.537543
2025-05-31 15:24:50,430 DeMo.train INFO: start training
2025-05-31 15:25:06,204 DeMo.train INFO: Epoch[1] Iteration[10/54] Loss: 5.719, Acc: 0.005, Base Lr: 6.65e-05
2025-05-31 15:25:10,595 DeMo.train INFO: Epoch[1] Iteration[20/54] Loss: 4.942, Acc: 0.010, Base Lr: 6.65e-05
…
