…
  MARGIN: 0.3
  MAX_EPOCHS: 50
  MOMENTUM: 0.9
  OPTIMIZER_NAME: Adam
  RANGE_ALPHA: 0
  RANGE_BETA: 1
  RANGE_K: 2
  RANGE_LOSS_WEIGHT: 1
  RANGE_MARGIN: 0.3
  SEED: 1111
  STEPS: (40, 70)
  WARMUP_FACTOR: 0.01
  WARMUP_ITERS: 10
  WARMUP_METHOD: linear
  WEIGHT_DECAY: 0.0001
  WEIGHT_DECAY_BIAS: 0.0001
TEST:
  FEAT: 0
  FEAT_NORM: yes
  IMS_PER_BATCH: 128
  MISS: nothing
  NECK_FEAT: before
  RE_RANKING: yes
  WEIGHT: 
2025-06-01 22:54:09,822 DeMo INFO: combineway: newablation
2025-06-01 22:54:10,136 DeMo INFO: DeMo(
  (BACKBONE): build_transformer(
    (base): VisionTransformer(
      (conv1): Conv2d(3, 768, kernel_size=(16, 16), stride=(16, 16), bias=False)
      (ln_pre): LayerNorm((768,), eps=1e-05, elementwise_affine=True)
      (transformer): Transformer(
        (resblocks): Sequential(
          (0): ResidualAttentionBlock(
            (attn): MultiheadAttention(
              (out_proj): NonDynamicallyQuantizableLinear(in_features=768, out_features=768, bias=True)
            )
            (ln_1): LayerNorm((768,), eps=1e-05, elementwise_affine=True)
            (mlp): Sequential(
              (c_fc): Linear(in_features=768, out_features=3072, bias=True)
              (gelu): QuickGELU()
              (c_proj): Linear(in_features=3072, out_features=768, bias=True)
            )
            (ln_2): LayerNorm((768,), eps=1e-05, elementwise_affine=True)
          )
          (1): ResidualAttentionBlock(
            (attn): MultiheadAttention(
              (out_proj): NonDynamicallyQuantizableLinear(in_features=768, out_features=768, bias=True)
            )
            (ln_1): LayerNorm((768,), eps=1e-05, elementwise_affine=True)
            (mlp): Sequential(
              (c_fc): Linear(in_features=768, out_features=3072, bias=True)
              (gelu): QuickGELU()
              (c_proj): Linear(in_features=3072, out_features=768, bias=True)
            )
            (ln_2): LayerNorm((768,), eps=1e-05, elementwise_affine=True)
          )
          (2): ResidualAttentionBlock(
            (attn): MultiheadAttention(
              (out_proj): NonDynamicallyQuantizableLinear(in_features=768, out_features=768, bias=True)
            )
            (ln_1): LayerNorm((768,), eps=1e-05, elementwise_affine=True)
            (mlp): Sequential(
              (c_fc): Linear(in_features=768, out_features=3072, bias=True)
              (gelu): QuickGELU()
              (c_proj): Linear(in_features=3072, out_features=768, bias=True)
            )
            (ln_2): LayerNorm((768,), eps=1e-05, elementwise_affine=True)
          )
          (3): ResidualAttentionBlock(
            (attn): MultiheadAttention(
              (out_proj): NonDynamicallyQuantizableLinear(in_features=768, out_features=768, bias=True)
            )
            (ln_1): LayerNorm((768,), eps=1e-05, elementwise_affine=True)
            (mlp): Sequential(
              (c_fc): Linear(in_features=768, out_features=3072, bias=True)
              (gelu): QuickGELU()
              (c_proj): Linear(in_features=3072, out_features=768, bias=True)
            )
            (ln_2): LayerNorm((768,), eps=1e-05, elementwise_affine=True)
          )
          (4): ResidualAttentionBlock(
            (attn): MultiheadAttention(
              (out_proj): NonDynamicallyQuantizableLinear(in_features=768, out_features=768, bias=True)
            )
            (ln_1): LayerNorm((768,), eps=1e-05, elementwise_affine=True)
            (mlp): Sequential(
              (c_fc): Linear(in_features=768, out_features=3072, bias=True)
              (gelu): QuickGELU()
              (c_proj): Linear(in_features=3072, out_features=768, bias=True)
            )
            (ln_2): LayerNorm((768,), eps=1e-05, elementwise_affine=True)
          )
          (5): ResidualAttentionBlock(
            (attn): MultiheadAttention(
              (out_proj): NonDynamicallyQuantizableLinear(in_features=768, out_features=768, bias=True)
            )
            (ln_1): LayerNorm((768,), eps=1e-05, elementwise_affine=True)
            (mlp): Sequential(
              (c_fc): Linear(in_features=768, out_features=3072, bias=True)
              (gelu): QuickGELU()
              (c_proj): Linear(in_features=3072, out_features=768, bias=True)
            )
            (ln_2): LayerNorm((768,), eps=1e-05, elementwise_affine=True)
          )
          (6): ResidualAttentionBlock(
            (attn): MultiheadAttention(
              (out_proj): NonDynamicallyQuantizableLinear(in_features=768, out_features=768, bias=True)
            )
            (ln_1): LayerNorm((768,), eps=1e-05, elementwise_affine=True)
            (mlp): Sequential(
              (c_fc): Linear(in_features=768, out_features=3072, bias=True)
              (gelu): QuickGELU()
              (c_proj): Linear(in_features=3072, out_features=768, bias=True)
            )
            (ln_2): LayerNorm((768,), eps=1e-05, elementwise_affine=True)
          )
          (7): ResidualAttentionBlock(
            (attn): MultiheadAttention(
              (out_proj): NonDynamicallyQuantizableLinear(in_features=768, out_features=768, bias=True)
            )
            (ln_1): LayerNorm((768,), eps=1e-05, elementwise_affine=True)
            (mlp): Sequential(
              (c_fc): Linear(in_features=768, out_features=3072, bias=True)
              (gelu): QuickGELU()
              (c_proj): Linear(in_features=3072, out_features=768, bias=True)
            )
            (ln_2): LayerNorm((768,), eps=1e-05, elementwise_affine=True)
          )
          (8): ResidualAttentionBlock(
            (attn): MultiheadAttention(
              (out_proj): NonDynamicallyQuantizableLinear(in_features=768, out_features=768, bias=True)
            )
            (ln_1): LayerNorm((768,), eps=1e-05, elementwise_affine=True)
            (mlp): Sequential(
              (c_fc): Linear(in_features=768, out_features=3072, bias=True)
              (gelu): QuickGELU()
              (c_proj): Linear(in_features=3072, out_features=768, bias=True)
            )
            (ln_2): LayerNorm((768,), eps=1e-05, elementwise_affine=True)
          )
          (9): ResidualAttentionBlock(
            (attn): MultiheadAttention(
              (out_proj): NonDynamicallyQuantizableLinear(in_features=768, out_features=768, bias=True)
            )
            (ln_1): LayerNorm((768,), eps=1e-05, elementwise_affine=True)
            (mlp): Sequential(
              (c_fc): Linear(in_features=768, out_features=3072, bias=True)
              (gelu): QuickGELU()
              (c_proj): Linear(in_features=3072, out_features=768, bias=True)
            )
            (ln_2): LayerNorm((768,), eps=1e-05, elementwise_affine=True)
          )
          (10): ResidualAttentionBlock(
            (attn): MultiheadAttention(
              (out_proj): NonDynamicallyQuantizableLinear(in_features=768, out_features=768, bias=True)
            )
            (ln_1): LayerNorm((768,), eps=1e-05, elementwise_affine=True)
            (mlp): Sequential(
              (c_fc): Linear(in_features=768, out_features=3072, bias=True)
              (gelu): QuickGELU()
              (c_proj): Linear(in_features=3072, out_features=768, bias=True)
            )
            (ln_2): LayerNorm((768,), eps=1e-05, elementwise_affine=True)
          )
          (11): ResidualAttentionBlock(
            (attn): MultiheadAttention(
              (out_proj): NonDynamicallyQuantizableLinear(in_features=768, out_features=768, bias=True)
            )
            (ln_1): LayerNorm((768,), eps=1e-05, elementwise_affine=True)
            (mlp): Sequential(
              (c_fc): Linear(in_features=768, out_features=3072, bias=True)
              (gelu): QuickGELU()
              (c_proj): Linear(in_features=3072, out_features=768, bias=True)
            )
            (ln_2): LayerNorm((768,), eps=1e-05, elementwise_affine=True)
          )
        )
      )
      (ln_post): LayerNorm((768,), eps=1e-05, elementwise_affine=True)
    )
  )
  (pool): AdaptiveAvgPool1d(output_size=1)
  (rgb_reduce): Sequential(
    (0): LayerNorm((1024,), eps=1e-05, elementwise_affine=True)
    (1): Linear(in_features=1024, out_features=512, bias=True)
    (2): QuickGELU()
  )
  (nir_reduce): Sequential(
    (0): LayerNorm((1024,), eps=1e-05, elementwise_affine=True)
    (1): Linear(in_features=1024, out_features=512, bias=True)
    (2): QuickGELU()
  )
  (tir_reduce): Sequential(
    (0): LayerNorm((1024,), eps=1e-05, elementwise_affine=True)
    (1): Linear(in_features=1024, out_features=512, bias=True)
    (2): QuickGELU()
  )
  (generalFusion): GeneralFusion(
    (eda_model): SimplifiedEDA(
      (conv_offset_main): Sequential(
        (0): Conv2d(1536, 512, kernel_size=(1, 1), stride=(1, 1))
        (1): GELU(approximate='none')
        (2): Conv2d(512, 512, kernel_size=(4, 4), stride=(2, 2), groups=512)
        (3): GELU(approximate='none')
        (4): Conv2d(512, 2, kernel_size=(1, 1), stride=(1, 1), bias=False)
      )
      (conv_offset_coarse): Sequential(
        (0): Conv2d(1536, 512, kernel_size=(1, 1), stride=(1, 1))
        (1): GELU(approximate='none')
        (2): Conv2d(512, 512, kernel_size=(6, 6), stride=(2, 2), padding=(1, 1), groups=512)
        (3): GELU(approximate='none')
        (4): Conv2d(512, 2, kernel_size=(1, 1), stride=(1, 1), bias=False)
      )
      (conv_offset_fine): Sequential(
        (0): Conv2d(1536, 512, kernel_size=(1, 1), stride=(1, 1))
        (1): GELU(approximate='none')
        (2): Conv2d(512, 512, kernel_size=(2, 2), stride=(2, 2), groups=512)
        (3): GELU(approximate='none')
        (4): Conv2d(512, 2, kernel_size=(1, 1), stride=(1, 1), bias=False)
      )
      (channel_attention): Sequential(
        (0): AdaptiveAvgPool2d(output_size=1)
        (1): Conv2d(1536, 128, kernel_size=(1, 1), stride=(1, 1))
        (2): ReLU(inplace=True)
        (3): Conv2d(128, 1536, kernel_size=(1, 1), stride=(1, 1))
        (4): Sigmoid()
      )
      (spatial_adapter): Conv2d(2, 2, kernel_size=(3, 3), stride=(1, 1), padding=(1, 1))
      (proj_q): Conv2d(512, 512, kernel_size=(1, 1), stride=(1, 1))
      (proj_k): Conv2d(512, 512, kernel_size=(1, 1), stride=(1, 1))
      (proj_v): Conv2d(512, 512, kernel_size=(1, 1), stride=(1, 1))
      (proj_out): Conv2d(512, 512, kernel_size=(1, 1), stride=(1, 1))
      (proj_drop): Dropout(p=0.0, inplace=False)
      (attn_drop): Dropout(p=0.0, inplace=False)
    )
    (haqn_model): SimplifiedHAQN(
      (modality_modules): ModuleDict(
        (RGB): ModuleDict(
          (queries): ParameterList(
              (0): Parameter containing: [torch.float32 of size 1x64x512]
              (1): Parameter containing: [torch.float32 of size 1x32x512]
…
              (out_proj): NonDynamicallyQuantizableLinear(in_features=512, out_features=512, bias=True)
            )
          )
          (cross_attns): ModuleList(
            (0): MultiheadAttention(
              (out_proj): NonDynamicallyQuantizableLinear(in_features=512, out_features=512, bias=True)
            )
            (1): MultiheadAttention(
              (out_proj): NonDynamicallyQuantizableLinear(in_features=512, out_features=512, bias=True)
            )
            (2): MultiheadAttention(
              (out_proj): NonDynamicallyQuantizableLinear(in_features=512, out_features=512, bias=True)
            )
          )
          (norms1): ModuleList(
            (0): LayerNorm((512,), eps=1e-05, elementwise_affine=True)
            (1): LayerNorm((512,), eps=1e-05, elementwise_affine=True)
            (2): LayerNorm((512,), eps=1e-05, elementwise_affine=True)
          )
          (norms2): ModuleList(
            (0): LayerNorm((512,), eps=1e-05, elementwise_affine=True)
            (1): LayerNorm((512,), eps=1e-05, elementwise_affine=True)
            (2): LayerNorm((512,), eps=1e-05, elementwise_affine=True)
          )
          (query_refinement): ModuleList(
            (0): Sequential(
              (0): Linear(in_features=512, out_features=256, bias=True)
              (1): ReLU()
              (2): Linear(in_features=256, out_features=512, bias=True)
              (3): Dropout(p=0.1, inplace=False)
            )
            (1): Sequential(
              (0): Linear(in_features=512, out_features=256, bias=True)
              (1): ReLU()
              (2): Linear(in_features=256, out_features=512, bias=True)
              (3): Dropout(p=0.1, inplace=False)
            )
            (2): Sequential(
              (0): Linear(in_features=512, out_features=256, bias=True)
              (1): ReLU()
              (2): Linear(in_features=256, out_features=512, bias=True)
              (3): Dropout(p=0.1, inplace=False)
            )
            (3): Sequential(
              (0): Linear(in_features=512, out_features=256, bias=True)
              (1): ReLU()
              (2): Linear(in_features=256, out_features=512, bias=True)
              (3): Dropout(p=0.1, inplace=False)
            )
          )
          (final_proj): Linear(in_features=112, out_features=1, bias=True)
        )
        (NI): ModuleDict(
          (queries): ParameterList(
              (0): Parameter containing: [torch.float32 of size 1x64x512]
              (1): Parameter containing: [torch.float32 of size 1x32x512]
              (2): Parameter containing: [torch.float32 of size 1x16x512]
          )
          (self_attns): ModuleList(
            (0): MultiheadAttention(
…
              (out_proj): NonDynamicallyQuantizableLinear(in_features=512, out_features=512, bias=True)
            )
          )
          (cross_attns): ModuleList(
            (0): MultiheadAttention(
              (out_proj): NonDynamicallyQuantizableLinear(in_features=512, out_features=512, bias=True)
            )
            (1): MultiheadAttention(
              (out_proj): NonDynamicallyQuantizableLinear(in_features=512, out_features=512, bias=True)
            )
            (2): MultiheadAttention(
              (out_proj): NonDynamicallyQuantizableLinear(in_features=512, out_features=512, bias=True)
            )
          )
          (norms1): ModuleList(
            (0): LayerNorm((512,), eps=1e-05, elementwise_affine=True)
            (1): LayerNorm((512,), eps=1e-05, elementwise_affine=True)
            (2): LayerNorm((512,), eps=1e-05, elementwise_affine=True)
          )
          (norms2): ModuleList(
            (0): LayerNorm((512,), eps=1e-05, elementwise_affine=True)
            (1): LayerNorm((512,), eps=1e-05, elementwise_affine=True)
            (2): LayerNorm((512,), eps=1e-05, elementwise_affine=True)
          )
          (query_refinement): ModuleList(
            (0): Sequential(
              (0): Linear(in_features=512, out_features=256, bias=True)
              (1): ReLU()
              (2): Linear(in_features=256, out_features=512, bias=True)
              (3): Dropout(p=0.1, inplace=False)
            )
            (1): Sequential(
              (0): Linear(in_features=512, out_features=256, bias=True)
              (1): ReLU()
              (2): Linear(in_features=256, out_features=512, bias=True)
              (3): Dropout(p=0.1, inplace=False)
            )
            (2): Sequential(
              (0): Linear(in_features=512, out_features=256, bias=True)
              (1): ReLU()
              (2): Linear(in_features=256, out_features=512, bias=True)
              (3): Dropout(p=0.1, inplace=False)
            )
            (3): Sequential(
              (0): Linear(in_features=512, out_features=256, bias=True)
              (1): ReLU()
              (2): Linear(in_features=256, out_features=512, bias=True)
              (3): Dropout(p=0.1, inplace=False)
            )
          )
          (final_proj): Linear(in_features=112, out_features=1, bias=True)
        )
      )
      (layer_weights): ParameterDict(
          (NI): Parameter containing: [torch.FloatTensor of size 4]
          (NI_TI): Parameter containing: [torch.FloatTensor of size 4]
          (RGB): Parameter containing: [torch.FloatTensor of size 4]
          (RGB_NI): Parameter containing: [torch.FloatTensor of size 4]
          (RGB_NI_TI): Parameter containing: [torch.FloatTensor of size 4]
          (RGB_TI): Parameter containing: [torch.FloatTensor of size 4]
          (TI): Parameter containing: [torch.FloatTensor of size 4]
      )
    )
  )
  (classifier_moe): Linear(in_features=3584, out_features=171, bias=False)
  (bottleneck_moe): BatchNorm1d(3584, eps=1e-05, momentum=0.1, affine=True, track_running_stats=True)
  (classifier): Linear(in_features=1536, out_features=171, bias=False)
  (bottleneck): BatchNorm1d(1536, eps=1e-05, momentum=0.1, affine=True, track_running_stats=True)
)
2025-06-01 22:54:10,138 DeMo INFO: number of parameters:144.377309
2025-06-01 22:54:10,212 DeMo.train INFO: start training
2025-06-01 22:54:24,627 DeMo.train INFO: Epoch[1] Iteration[10/54] Loss: 4.673, Acc: 0.011, Base Lr: 6.65e-05
2025-06-01 22:54:28,280 DeMo.train INFO: Epoch[1] Iteration[20/54] Loss: 4.353, Acc: 0.013, Base Lr: 6.65e-05
…
