…
  LOG_PERIOD: 10
  MARGIN: 0.3
  MAX_EPOCHS: 30
  MOMENTUM: 0.9
  OPTIMIZER_NAME: Adam
  RANGE_ALPHA: 0
  RANGE_BETA: 1
  RANGE_K: 2
  RANGE_LOSS_WEIGHT: 1
  RANGE_MARGIN: 0.3
  SEED: 1111
  STEPS: (40, 70)
  WARMUP_FACTOR: 0.01
  WARMUP_ITERS: 5
  WARMUP_METHOD: linear
  WEIGHT_DECAY: 0.0001
  WEIGHT_DECAY_BIAS: 0.0001
TEST:
  FEAT: 0
  FEAT_NORM: yes
  IMS_PER_BATCH: 128
  MISS: nothing
  NECK_FEAT: before
  RE_RANKING: no
  WEIGHT: 
2025-05-30 23:53:34,620 DeMo INFO: combineway: normal
2025-05-30 23:53:34,686 DeMo INFO: DeMo(
  (BACKBONE): build_transformer(
    (base): VisionTransformer(
      (conv1): Conv2d(3, 768, kernel_size=(16, 16), stride=(16, 16), bias=False)
      (ln_pre): LayerNorm((768,), eps=1e-05, elementwise_affine=True)
      (transformer): Transformer(
        (resblocks): Sequential(
          (0): ResidualAttentionBlock(
            (attn): MultiheadAttention(
              (out_proj): NonDynamicallyQuantizableLinear(in_features=768, out_features=768, bias=True)
            )
            (ln_1): LayerNorm((768,), eps=1e-05, elementwise_affine=True)
            (mlp): Sequential(
              (c_fc): Linear(in_features=768, out_features=3072, bias=True)
              (gelu): QuickGELU()
              (c_proj): Linear(in_features=3072, out_features=768, bias=True)
            )
            (ln_2): LayerNorm((768,), eps=1e-05, elementwise_affine=True)
          )
          (1): ResidualAttentionBlock(
            (attn): MultiheadAttention(
              (out_proj): NonDynamicallyQuantizableLinear(in_features=768, out_features=768, bias=True)
            )
            (ln_1): LayerNorm((768,), eps=1e-05, elementwise_affine=True)
            (mlp): Sequential(
              (c_fc): Linear(in_features=768, out_features=3072, bias=True)
              (gelu): QuickGELU()
              (c_proj): Linear(in_features=3072, out_features=768, bias=True)
            )
            (ln_2): LayerNorm((768,), eps=1e-05, elementwise_affine=True)
          )
          (2): ResidualAttentionBlock(
            (attn): MultiheadAttention(
              (out_proj): NonDynamicallyQuantizableLinear(in_features=768, out_features=768, bias=True)
            )
            (ln_1): LayerNorm((768,), eps=1e-05, elementwise_affine=True)
            (mlp): Sequential(
              (c_fc): Linear(in_features=768, out_features=3072, bias=True)
              (gelu): QuickGELU()
              (c_proj): Linear(in_features=3072, out_features=768, bias=True)
            )
            (ln_2): LayerNorm((768,), eps=1e-05, elementwise_affine=True)
          )
          (3): ResidualAttentionBlock(
            (attn): MultiheadAttention(
              (out_proj): NonDynamicallyQuantizableLinear(in_features=768, out_features=768, bias=True)
            )
            (ln_1): LayerNorm((768,), eps=1e-05, elementwise_affine=True)
            (mlp): Sequential(
              (c_fc): Linear(in_features=768, out_features=3072, bias=True)
              (gelu): QuickGELU()
              (c_proj): Linear(in_features=3072, out_features=768, bias=True)
            )
            (ln_2): LayerNorm((768,), eps=1e-05, elementwise_affine=True)
          )
          (4): ResidualAttentionBlock(
            (attn): MultiheadAttention(
              (out_proj): NonDynamicallyQuantizableLinear(in_features=768, out_features=768, bias=True)
            )
            (ln_1): LayerNorm((768,), eps=1e-05, elementwise_affine=True)
            (mlp): Sequential(
              (c_fc): Linear(in_features=768, out_features=3072, bias=True)
              (gelu): QuickGELU()
              (c_proj): Linear(in_features=3072, out_features=768, bias=True)
            )
            (ln_2): LayerNorm((768,), eps=1e-05, elementwise_affine=True)
          )
          (5): ResidualAttentionBlock(
            (attn): MultiheadAttention(
              (out_proj): NonDynamicallyQuantizableLinear(in_features=768, out_features=768, bias=True)
            )
            (ln_1): LayerNorm((768,), eps=1e-05, elementwise_affine=True)
            (mlp): Sequential(
              (c_fc): Linear(in_features=768, out_features=3072, bias=True)
              (gelu): QuickGELU()
              (c_proj): Linear(in_features=3072, out_features=768, bias=True)
            )
            (ln_2): LayerNorm((768,), eps=1e-05, elementwise_affine=True)
          )
          (6): ResidualAttentionBlock(
            (attn): MultiheadAttention(
              (out_proj): NonDynamicallyQuantizableLinear(in_features=768, out_features=768, bias=True)
            )
            (ln_1): LayerNorm((768,), eps=1e-05, elementwise_affine=True)
            (mlp): Sequential(
              (c_fc): Linear(in_features=768, out_features=3072, bias=True)
              (gelu): QuickGELU()
              (c_proj): Linear(in_features=3072, out_features=768, bias=True)
            )
            (ln_2): LayerNorm((768,), eps=1e-05, elementwise_affine=True)
          )
          (7): ResidualAttentionBlock(
            (attn): MultiheadAttention(
              (out_proj): NonDynamicallyQuantizableLinear(in_features=768, out_features=768, bias=True)
            )
            (ln_1): LayerNorm((768,), eps=1e-05, elementwise_affine=True)
            (mlp): Sequential(
              (c_fc): Linear(in_features=768, out_features=3072, bias=True)
              (gelu): QuickGELU()
              (c_proj): Linear(in_features=3072, out_features=768, bias=True)
            )
            (ln_2): LayerNorm((768,), eps=1e-05, elementwise_affine=True)
          )
          (8): ResidualAttentionBlock(
            (attn): MultiheadAttention(
              (out_proj): NonDynamicallyQuantizableLinear(in_features=768, out_features=768, bias=True)
            )
            (ln_1): LayerNorm((768,), eps=1e-05, elementwise_affine=True)
            (mlp): Sequential(
              (c_fc): Linear(in_features=768, out_features=3072, bias=True)
              (gelu): QuickGELU()
              (c_proj): Linear(in_features=3072, out_features=768, bias=True)
            )
            (ln_2): LayerNorm((768,), eps=1e-05, elementwise_affine=True)
          )
          (9): ResidualAttentionBlock(
            (attn): MultiheadAttention(
              (out_proj): NonDynamicallyQuantizableLinear(in_features=768, out_features=768, bias=True)
            )
            (ln_1): LayerNorm((768,), eps=1e-05, elementwise_affine=True)
            (mlp): Sequential(
              (c_fc): Linear(in_features=768, out_features=3072, bias=True)
              (gelu): QuickGELU()
              (c_proj): Linear(in_features=3072, out_features=768, bias=True)
            )
            (ln_2): LayerNorm((768,), eps=1e-05, elementwise_affine=True)
          )
          (10): ResidualAttentionBlock(
            (attn): MultiheadAttention(
              (out_proj): NonDynamicallyQuantizableLinear(in_features=768, out_features=768, bias=True)
            )
            (ln_1): LayerNorm((768,), eps=1e-05, elementwise_affine=True)
            (mlp): Sequential(
              (c_fc): Linear(in_features=768, out_features=3072, bias=True)
              (gelu): QuickGELU()
              (c_proj): Linear(in_features=3072, out_features=768, bias=True)
            )
            (ln_2): LayerNorm((768,), eps=1e-05, elementwise_affine=True)
          )
          (11): ResidualAttentionBlock(
            (attn): MultiheadAttention(
              (out_proj): NonDynamicallyQuantizableLinear(in_features=768, out_features=768, bias=True)
            )
            (ln_1): LayerNorm((768,), eps=1e-05, elementwise_affine=True)
            (mlp): Sequential(
              (c_fc): Linear(in_features=768, out_features=3072, bias=True)
              (gelu): QuickGELU()
              (c_proj): Linear(in_features=3072, out_features=768, bias=True)
            )
            (ln_2): LayerNorm((768,), eps=1e-05, elementwise_affine=True)
          )
        )
      )
      (ln_post): LayerNorm((768,), eps=1e-05, elementwise_affine=True)
    )
  )
  (pool): AdaptiveAvgPool1d(output_size=1)
  (rgb_reduce): Sequential(
    (0): LayerNorm((1024,), eps=1e-05, elementwise_affine=True)
    (1): Linear(in_features=1024, out_features=512, bias=True)
    (2): QuickGELU()
  )
  (nir_reduce): Sequential(
    (0): LayerNorm((1024,), eps=1e-05, elementwise_affine=True)
    (1): Linear(in_features=1024, out_features=512, bias=True)
    (2): QuickGELU()
  )
  (tir_reduce): Sequential(
    (0): LayerNorm((1024,), eps=1e-05, elementwise_affine=True)
    (1): Linear(in_features=1024, out_features=512, bias=True)
    (2): QuickGELU()
  )
  (generalFusion): GeneralFusion(
    (r): MultiheadAttention(
      (out_proj): NonDynamicallyQuantizableLinear(in_features=512, out_features=512, bias=True)
    )
    (n): MultiheadAttention(
      (out_proj): NonDynamicallyQuantizableLinear(in_features=512, out_features=512, bias=True)
    )
    (t): MultiheadAttention(
      (out_proj): NonDynamicallyQuantizableLinear(in_features=512, out_features=512, bias=True)
…
      (out_proj): NonDynamicallyQuantizableLinear(in_features=512, out_features=512, bias=True)
    )
    (rt): MultiheadAttention(
      (out_proj): NonDynamicallyQuantizableLinear(in_features=512, out_features=512, bias=True)
    )
    (nt): MultiheadAttention(
      (out_proj): NonDynamicallyQuantizableLinear(in_features=512, out_features=512, bias=True)
    )
    (rnt): MultiheadAttention(
      (out_proj): NonDynamicallyQuantizableLinear(in_features=512, out_features=512, bias=True)
    )
    (moe): MoM(
      (experts): ModuleList(
        (0): ExpertHead(
          (expertHead): ModuleList(
            (0): Expert(
              (mlp): Sequential(
                (0): Linear(in_features=64, out_features=64, bias=True)
                (1): QuickGELU()
                (2): BatchNorm1d(64, eps=1e-05, momentum=0.1, affine=True, track_running_stats=True)
              )
            )
            (1): Expert(
              (mlp): Sequential(
                (0): Linear(in_features=64, out_features=64, bias=True)
                (1): QuickGELU()
                (2): BatchNorm1d(64, eps=1e-05, momentum=0.1, affine=True, track_running_stats=True)
              )
            )
            (2): Expert(
              (mlp): Sequential(
                (0): Linear(in_features=64, out_features=64, bias=True)
                (1): QuickGELU()
                (2): BatchNorm1d(64, eps=1e-05, momentum=0.1, affine=True, track_running_stats=True)
              )
            )
            (3): Expert(
              (mlp): Sequential(
                (0): Linear(in_features=64, out_features=64, bias=True)
                (1): QuickGELU()
                (2): BatchNorm1d(64, eps=1e-05, momentum=0.1, affine=True, track_running_stats=True)
              )
            )
            (4): Expert(
              (mlp): Sequential(
                (0): Linear(in_features=64, out_features=64, bias=True)
                (1): QuickGELU()
                (2): BatchNorm1d(64, eps=1e-05, momentum=0.1, affine=True, track_running_stats=True)
              )
            )
            (5): Expert(
              (mlp): Sequential(
                (0): Linear(in_features=64, out_features=64, bias=True)
                (1): QuickGELU()
                (2): BatchNorm1d(64, eps=1e-05, momentum=0.1, affine=True, track_running_stats=True)
              )
            )
            (6): Expert(
              (mlp): Sequential(
                (0): Linear(in_features=64, out_features=64, bias=True)
                (1): QuickGELU()
                (2): BatchNorm1d(64, eps=1e-05, momentum=0.1, affine=True, track_running_stats=True)
              )
            )
          )
        )
        (1): ExpertHead(
          (expertHead): ModuleList(
            (0): Expert(
              (mlp): Sequential(
                (0): Linear(in_features=64, out_features=64, bias=True)
                (1): QuickGELU()
                (2): BatchNorm1d(64, eps=1e-05, momentum=0.1, affine=True, track_running_stats=True)
              )
            )
            (1): Expert(
              (mlp): Sequential(
                (0): Linear(in_features=64, out_features=64, bias=True)
                (1): QuickGELU()
                (2): BatchNorm1d(64, eps=1e-05, momentum=0.1, affine=True, track_running_stats=True)
              )
            )
            (2): Expert(
              (mlp): Sequential(
                (0): Linear(in_features=64, out_features=64, bias=True)
                (1): QuickGELU()
                (2): BatchNorm1d(64, eps=1e-05, momentum=0.1, affine=True, track_running_stats=True)
              )
            )
            (3): Expert(
              (mlp): Sequential(
                (0): Linear(in_features=64, out_features=64, bias=True)
                (1): QuickGELU()
                (2): BatchNorm1d(64, eps=1e-05, momentum=0.1, affine=True, track_running_stats=True)
              )
            )
            (4): Expert(
              (mlp): Sequential(
                (0): Linear(in_features=64, out_features=64, bias=True)
                (1): QuickGELU()
                (2): BatchNorm1d(64, eps=1e-05, momentum=0.1, affine=True, track_running_stats=True)
              )
            )
            (5): Expert(
              (mlp): Sequential(
                (0): Linear(in_features=64, out_features=64, bias=True)
                (1): QuickGELU()
                (2): BatchNorm1d(64, eps=1e-05, momentum=0.1, affine=True, track_running_stats=True)
              )
            )
            (6): Expert(
              (mlp): Sequential(
                (0): Linear(in_features=64, out_features=64, bias=True)
                (1): QuickGELU()
                (2): BatchNorm1d(64, eps=1e-05, momentum=0.1, affine=True, track_running_stats=True)
              )
            )
          )
        )
        (2): ExpertHead(
          (expertHead): ModuleList(
            (0): Expert(
              (mlp): Sequential(
                (0): Linear(in_features=64, out_features=64, bias=True)
                (1): QuickGELU()
                (2): BatchNorm1d(64, eps=1e-05, momentum=0.1, affine=True, track_running_stats=True)
              )
            )
            (1): Expert(
              (mlp): Sequential(
                (0): Linear(in_features=64, out_features=64, bias=True)
                (1): QuickGELU()
                (2): BatchNorm1d(64, eps=1e-05, momentum=0.1, affine=True, track_running_stats=True)
              )
            )
            (2): Expert(
              (mlp): Sequential(
                (0): Linear(in_features=64, out_features=64, bias=True)
                (1): QuickGELU()
                (2): BatchNorm1d(64, eps=1e-05, momentum=0.1, affine=True, track_running_stats=True)
              )
            )
            (3): Expert(
              (mlp): Sequential(
                (0): Linear(in_features=64, out_features=64, bias=True)
                (1): QuickGELU()
                (2): BatchNorm1d(64, eps=1e-05, momentum=0.1, affine=True, track_running_stats=True)
              )
            )
            (4): Expert(
              (mlp): Sequential(
                (0): Linear(in_features=64, out_features=64, bias=True)
                (1): QuickGELU()
                (2): BatchNorm1d(64, eps=1e-05, momentum=0.1, affine=True, track_running_stats=True)
              )
            )
            (5): Expert(
              (mlp): Sequential(
                (0): Linear(in_features=64, out_features=64, bias=True)
                (1): QuickGELU()
                (2): BatchNorm1d(64, eps=1e-05, momentum=0.1, affine=True, track_running_stats=True)
              )
            )
            (6): Expert(
              (mlp): Sequential(
                (0): Linear(in_features=64, out_features=64, bias=True)
                (1): QuickGELU()
                (2): BatchNorm1d(64, eps=1e-05, momentum=0.1, affine=True, track_running_stats=True)
              )
            )
          )
        )
        (3): ExpertHead(
          (expertHead): ModuleList(
            (0): Expert(
              (mlp): Sequential(
                (0): Linear(in_features=64, out_features=64, bias=True)
                (1): QuickGELU()
                (2): BatchNorm1d(64, eps=1e-05, momentum=0.1, affine=True, track_running_stats=True)
              )
            )
            (1): Expert(
              (mlp): Sequential(
                (0): Linear(in_features=64, out_features=64, bias=True)
                (1): QuickGELU()
                (2): BatchNorm1d(64, eps=1e-05, momentum=0.1, affine=True, track_running_stats=True)
              )
            )
            (2): Expert(
              (mlp): Sequential(
                (0): Linear(in_features=64, out_features=64, bias=True)
                (1): QuickGELU()
                (2): BatchNorm1d(64, eps=1e-05, momentum=0.1, affine=True, track_running_stats=True)
              )
            )
            (3): Expert(
              (mlp): Sequential(
                (0): Linear(in_features=64, out_features=64, bias=True)
                (1): QuickGELU()
                (2): BatchNorm1d(64, eps=1e-05, momentum=0.1, affine=True, track_running_stats=True)
              )
            )
            (4): Expert(
              (mlp): Sequential(
                (0): Linear(in_features=64, out_features=64, bias=True)
                (1): QuickGELU()
                (2): BatchNorm1d(64, eps=1e-05, momentum=0.1, affine=True, track_running_stats=True)
              )
            )
            (5): Expert(
              (mlp): Sequential(
                (0): Linear(in_features=64, out_features=64, bias=True)
                (1): QuickGELU()
                (2): BatchNorm1d(64, eps=1e-05, momentum=0.1, affine=True, track_running_stats=True)
              )
            )
            (6): Expert(
              (mlp): Sequential(
                (0): Linear(in_features=64, out_features=64, bias=True)
                (1): QuickGELU()
                (2): BatchNorm1d(64, eps=1e-05, momentum=0.1, affine=True, track_running_stats=True)
              )
            )
          )
        )
        (4): ExpertHead(
          (expertHead): ModuleList(
            (0): Expert(
              (mlp): Sequential(
                (0): Linear(in_features=64, out_features=64, bias=True)
                (1): QuickGELU()
                (2): BatchNorm1d(64, eps=1e-05, momentum=0.1, affine=True, track_running_stats=True)
              )
            )
            (1): Expert(
              (mlp): Sequential(
                (0): Linear(in_features=64, out_features=64, bias=True)
                (1): QuickGELU()
                (2): BatchNorm1d(64, eps=1e-05, momentum=0.1, affine=True, track_running_stats=True)
              )
            )
            (2): Expert(
              (mlp): Sequential(
                (0): Linear(in_features=64, out_features=64, bias=True)
                (1): QuickGELU()
                (2): BatchNorm1d(64, eps=1e-05, momentum=0.1, affine=True, track_running_stats=True)
              )
            )
            (3): Expert(
              (mlp): Sequential(
                (0): Linear(in_features=64, out_features=64, bias=True)
                (1): QuickGELU()
                (2): BatchNorm1d(64, eps=1e-05, momentum=0.1, affine=True, track_running_stats=True)
              )
            )
            (4): Expert(
              (mlp): Sequential(
                (0): Linear(in_features=64, out_features=64, bias=True)
                (1): QuickGELU()
                (2): BatchNorm1d(64, eps=1e-05, momentum=0.1, affine=True, track_running_stats=True)
              )
            )
            (5): Expert(
              (mlp): Sequential(
                (0): Linear(in_features=64, out_features=64, bias=True)
                (1): QuickGELU()
                (2): BatchNorm1d(64, eps=1e-05, momentum=0.1, affine=True, track_running_stats=True)
              )
            )
            (6): Expert(
              (mlp): Sequential(
                (0): Linear(in_features=64, out_features=64, bias=True)
                (1): QuickGELU()
                (2): BatchNorm1d(64, eps=1e-05, momentum=0.1, affine=True, track_running_stats=True)
              )
            )
          )
        )
        (5): ExpertHead(
          (expertHead): ModuleList(
            (0): Expert(
              (mlp): Sequential(
                (0): Linear(in_features=64, out_features=64, bias=True)
                (1): QuickGELU()
                (2): BatchNorm1d(64, eps=1e-05, momentum=0.1, affine=True, track_running_stats=True)
              )
            )
            (1): Expert(
              (mlp): Sequential(
                (0): Linear(in_features=64, out_features=64, bias=True)
                (1): QuickGELU()
                (2): BatchNorm1d(64, eps=1e-05, momentum=0.1, affine=True, track_running_stats=True)
              )
            )
            (2): Expert(
              (mlp): Sequential(
                (0): Linear(in_features=64, out_features=64, bias=True)
                (1): QuickGELU()
                (2): BatchNorm1d(64, eps=1e-05, momentum=0.1, affine=True, track_running_stats=True)
              )
            )
            (3): Expert(
              (mlp): Sequential(
                (0): Linear(in_features=64, out_features=64, bias=True)
                (1): QuickGELU()
                (2): BatchNorm1d(64, eps=1e-05, momentum=0.1, affine=True, track_running_stats=True)
              )
            )
            (4): Expert(
              (mlp): Sequential(
                (0): Linear(in_features=64, out_features=64, bias=True)
                (1): QuickGELU()
                (2): BatchNorm1d(64, eps=1e-05, momentum=0.1, affine=True, track_running_stats=True)
              )
            )
            (5): Expert(
              (mlp): Sequential(
                (0): Linear(in_features=64, out_features=64, bias=True)
                (1): QuickGELU()
                (2): BatchNorm1d(64, eps=1e-05, momentum=0.1, affine=True, track_running_stats=True)
              )
            )
            (6): Expert(
              (mlp): Sequential(
                (0): Linear(in_features=64, out_features=64, bias=True)
                (1): QuickGELU()
                (2): BatchNorm1d(64, eps=1e-05, momentum=0.1, affine=True, track_running_stats=True)
              )
            )
          )
        )
        (6): ExpertHead(
          (expertHead): ModuleList(
            (0): Expert(
              (mlp): Sequential(
                (0): Linear(in_features=64, out_features=64, bias=True)
                (1): QuickGELU()
                (2): BatchNorm1d(64, eps=1e-05, momentum=0.1, affine=True, track_running_stats=True)
              )
            )
            (1): Expert(
              (mlp): Sequential(
                (0): Linear(in_features=64, out_features=64, bias=True)
                (1): QuickGELU()
                (2): BatchNorm1d(64, eps=1e-05, momentum=0.1, affine=True, track_running_stats=True)
              )
            )
            (2): Expert(
              (mlp): Sequential(
                (0): Linear(in_features=64, out_features=64, bias=True)
                (1): QuickGELU()
                (2): BatchNorm1d(64, eps=1e-05, momentum=0.1, affine=True, track_running_stats=True)
              )
            )
            (3): Expert(
              (mlp): Sequential(
                (0): Linear(in_features=64, out_features=64, bias=True)
                (1): QuickGELU()
                (2): BatchNorm1d(64, eps=1e-05, momentum=0.1, affine=True, track_running_stats=True)
              )
            )
            (4): Expert(
              (mlp): Sequential(
                (0): Linear(in_features=64, out_features=64, bias=True)
                (1): QuickGELU()
                (2): BatchNorm1d(64, eps=1e-05, momentum=0.1, affine=True, track_running_stats=True)
              )
            )
            (5): Expert(
              (mlp): Sequential(
                (0): Linear(in_features=64, out_features=64, bias=True)
                (1): QuickGELU()
                (2): BatchNorm1d(64, eps=1e-05, momentum=0.1, affine=True, track_running_stats=True)
              )
            )
            (6): Expert(
              (mlp): Sequential(
                (0): Linear(in_features=64, out_features=64, bias=True)
                (1): QuickGELU()
                (2): BatchNorm1d(64, eps=1e-05, momentum=0.1, affine=True, track_running_stats=True)
              )
            )
          )
        )
        (7): ExpertHead(
          (expertHead): ModuleList(
            (0): Expert(
              (mlp): Sequential(
                (0): Linear(in_features=64, out_features=64, bias=True)
                (1): QuickGELU()
                (2): BatchNorm1d(64, eps=1e-05, momentum=0.1, affine=True, track_running_stats=True)
              )
            )
            (1): Expert(
              (mlp): Sequential(
                (0): Linear(in_features=64, out_features=64, bias=True)
                (1): QuickGELU()
                (2): BatchNorm1d(64, eps=1e-05, momentum=0.1, affine=True, track_running_stats=True)
              )
            )
            (2): Expert(
              (mlp): Sequential(
                (0): Linear(in_features=64, out_features=64, bias=True)
                (1): QuickGELU()
                (2): BatchNorm1d(64, eps=1e-05, momentum=0.1, affine=True, track_running_stats=True)
              )
            )
            (3): Expert(
              (mlp): Sequential(
                (0): Linear(in_features=64, out_features=64, bias=True)
                (1): QuickGELU()
                (2): BatchNorm1d(64, eps=1e-05, momentum=0.1, affine=True, track_running_stats=True)
              )
            )
            (4): Expert(
              (mlp): Sequential(
                (0): Linear(in_features=64, out_features=64, bias=True)
                (1): QuickGELU()
                (2): BatchNorm1d(64, eps=1e-05, momentum=0.1, affine=True, track_running_stats=True)
              )
            )
            (5): Expert(
              (mlp): Sequential(
                (0): Linear(in_features=64, out_features=64, bias=True)
                (1): QuickGELU()
                (2): BatchNorm1d(64, eps=1e-05, momentum=0.1, affine=True, track_running_stats=True)
              )
            )
            (6): Expert(
              (mlp): Sequential(
                (0): Linear(in_features=64, out_features=64, bias=True)
                (1): QuickGELU()
                (2): BatchNorm1d(64, eps=1e-05, momentum=0.1, affine=True, track_running_stats=True)
              )
            )
          )
        )
      )
      (gating_network): GatingNetwork(
        (gate): CrossAttention(
          (linear_re): Sequential(
            (0): Linear(in_features=3584, out_features=512, bias=True)
            (1): QuickGELU()
            (2): BatchNorm1d(512, eps=1e-05, momentum=0.1, affine=True, track_running_stats=True)
          )
          (q_): Linear(in_features=512, out_features=512, bias=False)
          (k_): Linear(in_features=512, out_features=512, bias=False)
        )
      )
    )
  )
  (classifier_moe): Linear(in_features=3584, out_features=50, bias=False)
  (bottleneck_moe): BatchNorm1d(3584, eps=1e-05, momentum=0.1, affine=True, track_running_stats=True)
  (classifier_r): Linear(in_features=512, out_features=50, bias=False)
  (bottleneck_r): BatchNorm1d(512, eps=1e-05, momentum=0.1, affine=True, track_running_stats=True)
  (classifier_n): Linear(in_features=512, out_features=50, bias=False)
  (bottleneck_n): BatchNorm1d(512, eps=1e-05, momentum=0.1, affine=True, track_running_stats=True)
  (classifier_t): Linear(in_features=512, out_features=50, bias=False)
  (bottleneck_t): BatchNorm1d(512, eps=1e-05, momentum=0.1, affine=True, track_running_stats=True)
)
2025-05-30 23:53:34,688 DeMo INFO: number of parameters:97.947136
2025-05-30 23:53:34,727 DeMo.train INFO: start training
