…
  MARGIN: 0.3
  MAX_EPOCHS: 50
  MOMENTUM: 0.9
  OPTIMIZER_NAME: Adam
  RANGE_ALPHA: 0
  RANGE_BETA: 1
  RANGE_K: 2
  RANGE_LOSS_WEIGHT: 1
  RANGE_MARGIN: 0.3
  SEED: 1111
  STEPS: (40, 70)
  WARMUP_FACTOR: 0.01
  WARMUP_ITERS: 10
  WARMUP_METHOD: linear
  WEIGHT_DECAY: 0.0001
  WEIGHT_DECAY_BIAS: 0.0001
TEST:
  FEAT: 0
  FEAT_NORM: yes
  IMS_PER_BATCH: 128
  MISS: nothing
  NECK_FEAT: before
  RE_RANKING: yes
  WEIGHT: 
2025-05-27 15:04:50,368 DeMo INFO: combineway: multimodelse
2025-05-27 15:04:50,402 DeMo INFO: DeMo(
  (BACKBONE): build_transformer_new(
    (base): VisionTransformer(
      (conv1): Conv2d(3, 768, kernel_size=(16, 16), stride=(16, 16), bias=False)
      (ln_pre): LayerNorm((768,), eps=1e-05, elementwise_affine=True)
      (transformer): Transformer(
        (resblocks): Sequential(
          (0): ResidualAttentionBlock(
            (attn): MultiheadAttention(
              (out_proj): NonDynamicallyQuantizableLinear(in_features=768, out_features=768, bias=True)
            )
            (ln_1): LayerNorm((768,), eps=1e-05, elementwise_affine=True)
            (mlp): Sequential(
              (c_fc): Linear(in_features=768, out_features=3072, bias=True)
              (gelu): QuickGELU()
              (c_proj): Linear(in_features=3072, out_features=768, bias=True)
            )
            (ln_2): LayerNorm((768,), eps=1e-05, elementwise_affine=True)
          )
          (1): ResidualAttentionBlock(
            (attn): MultiheadAttention(
              (out_proj): NonDynamicallyQuantizableLinear(in_features=768, out_features=768, bias=True)
            )
            (ln_1): LayerNorm((768,), eps=1e-05, elementwise_affine=True)
            (mlp): Sequential(
              (c_fc): Linear(in_features=768, out_features=3072, bias=True)
              (gelu): QuickGELU()
              (c_proj): Linear(in_features=3072, out_features=768, bias=True)
            )
            (ln_2): LayerNorm((768,), eps=1e-05, elementwise_affine=True)
          )
          (2): ResidualAttentionBlock(
            (attn): MultiheadAttention(
              (out_proj): NonDynamicallyQuantizableLinear(in_features=768, out_features=768, bias=True)
            )
            (ln_1): LayerNorm((768,), eps=1e-05, elementwise_affine=True)
            (mlp): Sequential(
              (c_fc): Linear(in_features=768, out_features=3072, bias=True)
              (gelu): QuickGELU()
              (c_proj): Linear(in_features=3072, out_features=768, bias=True)
            )
            (ln_2): LayerNorm((768,), eps=1e-05, elementwise_affine=True)
          )
          (3): ResidualAttentionBlock(
            (attn): MultiheadAttention(
              (out_proj): NonDynamicallyQuantizableLinear(in_features=768, out_features=768, bias=True)
            )
            (ln_1): LayerNorm((768,), eps=1e-05, elementwise_affine=True)
            (mlp): Sequential(
              (c_fc): Linear(in_features=768, out_features=3072, bias=True)
              (gelu): QuickGELU()
              (c_proj): Linear(in_features=3072, out_features=768, bias=True)
            )
            (ln_2): LayerNorm((768,), eps=1e-05, elementwise_affine=True)
          )
          (4): ResidualAttentionBlock(
            (attn): MultiheadAttention(
              (out_proj): NonDynamicallyQuantizableLinear(in_features=768, out_features=768, bias=True)
            )
            (ln_1): LayerNorm((768,), eps=1e-05, elementwise_affine=True)
            (mlp): Sequential(
              (c_fc): Linear(in_features=768, out_features=3072, bias=True)
              (gelu): QuickGELU()
              (c_proj): Linear(in_features=3072, out_features=768, bias=True)
            )
            (ln_2): LayerNorm((768,), eps=1e-05, elementwise_affine=True)
          )
          (5): ResidualAttentionBlock(
            (attn): MultiheadAttention(
              (out_proj): NonDynamicallyQuantizableLinear(in_features=768, out_features=768, bias=True)
            )
            (ln_1): LayerNorm((768,), eps=1e-05, elementwise_affine=True)
            (mlp): Sequential(
              (c_fc): Linear(in_features=768, out_features=3072, bias=True)
              (gelu): QuickGELU()
              (c_proj): Linear(in_features=3072, out_features=768, bias=True)
            )
            (ln_2): LayerNorm((768,), eps=1e-05, elementwise_affine=True)
          )
          (6): ResidualAttentionBlock(
            (attn): MultiheadAttention(
              (out_proj): NonDynamicallyQuantizableLinear(in_features=768, out_features=768, bias=True)
            )
            (ln_1): LayerNorm((768,), eps=1e-05, elementwise_affine=True)
            (mlp): Sequential(
              (c_fc): Linear(in_features=768, out_features=3072, bias=True)
              (gelu): QuickGELU()
              (c_proj): Linear(in_features=3072, out_features=768, bias=True)
            )
            (ln_2): LayerNorm((768,), eps=1e-05, elementwise_affine=True)
          )
          (7): ResidualAttentionBlock(
            (attn): MultiheadAttention(
              (out_proj): NonDynamicallyQuantizableLinear(in_features=768, out_features=768, bias=True)
            )
            (ln_1): LayerNorm((768,), eps=1e-05, elementwise_affine=True)
            (mlp): Sequential(
              (c_fc): Linear(in_features=768, out_features=3072, bias=True)
              (gelu): QuickGELU()
              (c_proj): Linear(in_features=3072, out_features=768, bias=True)
            )
            (ln_2): LayerNorm((768,), eps=1e-05, elementwise_affine=True)
          )
          (8): ResidualAttentionBlock(
            (attn): MultiheadAttention(
              (out_proj): NonDynamicallyQuantizableLinear(in_features=768, out_features=768, bias=True)
            )
            (ln_1): LayerNorm((768,), eps=1e-05, elementwise_affine=True)
            (mlp): Sequential(
              (c_fc): Linear(in_features=768, out_features=3072, bias=True)
              (gelu): QuickGELU()
              (c_proj): Linear(in_features=3072, out_features=768, bias=True)
            )
            (ln_2): LayerNorm((768,), eps=1e-05, elementwise_affine=True)
          )
          (9): ResidualAttentionBlock(
            (attn): MultiheadAttention(
              (out_proj): NonDynamicallyQuantizableLinear(in_features=768, out_features=768, bias=True)
            )
            (ln_1): LayerNorm((768,), eps=1e-05, elementwise_affine=True)
            (mlp): Sequential(
              (c_fc): Linear(in_features=768, out_features=3072, bias=True)
              (gelu): QuickGELU()
              (c_proj): Linear(in_features=3072, out_features=768, bias=True)
            )
            (ln_2): LayerNorm((768,), eps=1e-05, elementwise_affine=True)
          )
          (10): ResidualAttentionBlock(
            (attn): MultiheadAttention(
              (out_proj): NonDynamicallyQuantizableLinear(in_features=768, out_features=768, bias=True)
            )
            (ln_1): LayerNorm((768,), eps=1e-05, elementwise_affine=True)
            (mlp): Sequential(
              (c_fc): Linear(in_features=768, out_features=3072, bias=True)
              (gelu): QuickGELU()
              (c_proj): Linear(in_features=3072, out_features=768, bias=True)
            )
            (ln_2): LayerNorm((768,), eps=1e-05, elementwise_affine=True)
          )
          (11): ResidualAttentionBlock(
            (attn): MultiheadAttention(
              (out_proj): NonDynamicallyQuantizableLinear(in_features=768, out_features=768, bias=True)
            )
            (ln_1): LayerNorm((768,), eps=1e-05, elementwise_affine=True)
            (mlp): Sequential(
              (c_fc): Linear(in_features=768, out_features=3072, bias=True)
              (gelu): QuickGELU()
              (c_proj): Linear(in_features=3072, out_features=768, bias=True)
            )
            (ln_2): LayerNorm((768,), eps=1e-05, elementwise_affine=True)
          )
        )
      )
      (ln_post): LayerNorm((768,), eps=1e-05, elementwise_affine=True)
      (triple_dff): TripleInputDirectDFF(
        (avg_pool1): AdaptiveAvgPool1d(output_size=1)
        (avg_pool2): AdaptiveAvgPool1d(output_size=2)
        (avg_pool4): AdaptiveAvgPool1d(output_size=4)
        (fc_atten1): Sequential(
          (0): Linear(in_features=2304, out_features=2304, bias=False)
          (1): LayerNorm((2304,), eps=1e-05, elementwise_affine=True)
          (2): Sigmoid()
        )
        (fc_atten2): Sequential(
          (0): Linear(in_features=2304, out_features=2304, bias=False)
          (1): LayerNorm((2304,), eps=1e-05, elementwise_affine=True)
          (2): Sigmoid()
        )
        (fc_atten4): Sequential(
          (0): Linear(in_features=2304, out_features=2304, bias=False)
          (1): LayerNorm((2304,), eps=1e-05, elementwise_affine=True)
          (2): Sigmoid()
        )
        (input_weight_net): Sequential(
          (0): Linear(in_features=2304, out_features=768, bias=True)
          (1): ReLU(inplace=True)
          (2): Linear(in_features=768, out_features=3, bias=True)
          (3): Softmax(dim=-1)
        )
        (gate_fc): Sequential(
          (0): Linear(in_features=2304, out_features=2304, bias=False)
          (1): Sigmoid()
        )
        (gate_enhancement): Sequential(
          (0): Linear(in_features=2304, out_features=2304, bias=True)
          (1): Tanh()
        )
        (fc_redu): Sequential(
          (0): Linear(in_features=2304, out_features=768, bias=False)
          (1): LayerNorm((768,), eps=1e-05, elementwise_affine=True)
          (2): ReLU(inplace=True)
        )
        (residual_fc1): Sequential(
          (0): Linear(in_features=768, out_features=768, bias=False)
          (1): LayerNorm((768,), eps=1e-05, elementwise_affine=True)
        )
        (residual_fc2): Sequential(
          (0): Linear(in_features=768, out_features=768, bias=False)
          (1): LayerNorm((768,), eps=1e-05, elementwise_affine=True)
        )
        (residual_fc3): Sequential(
          (0): Linear(in_features=768, out_features=768, bias=False)
          (1): LayerNorm((768,), eps=1e-05, elementwise_affine=True)
        )
        (residual_fusion): Sequential(
          (0): Linear(in_features=2304, out_features=768, bias=False)
          (1): LayerNorm((768,), eps=1e-05, elementwise_affine=True)
        )
        (fc1): Linear(in_features=768, out_features=1, bias=True)
        (fc2): Linear(in_features=768, out_features=1, bias=True)
        (fc3): Linear(in_features=768, out_features=1, bias=True)
        (attention_fusion): Sequential(
          (0): Linear(in_features=3, out_features=1, bias=True)
          (1): Sigmoid()
        )
      )
      (quad_dffs): QuadInputHierarchicalDFF(
        (stage1_triple_dff): TripleInputDirectDFF(
          (avg_pool1): AdaptiveAvgPool1d(output_size=1)
          (avg_pool2): AdaptiveAvgPool1d(output_size=2)
          (avg_pool4): AdaptiveAvgPool1d(output_size=4)
          (fc_atten1): Sequential(
            (0): Linear(in_features=2304, out_features=2304, bias=False)
            (1): LayerNorm((2304,), eps=1e-05, elementwise_affine=True)
            (2): Sigmoid()
          )
          (fc_atten2): Sequential(
            (0): Linear(in_features=2304, out_features=2304, bias=False)
            (1): LayerNorm((2304,), eps=1e-05, elementwise_affine=True)
            (2): Sigmoid()
          )
          (fc_atten4): Sequential(
            (0): Linear(in_features=2304, out_features=2304, bias=False)
            (1): LayerNorm((2304,), eps=1e-05, elementwise_affine=True)
            (2): Sigmoid()
          )
          (input_weight_net): Sequential(
            (0): Linear(in_features=2304, out_features=768, bias=True)
            (1): ReLU(inplace=True)
            (2): Linear(in_features=768, out_features=3, bias=True)
            (3): Softmax(dim=-1)
          )
          (gate_fc): Sequential(
            (0): Linear(in_features=2304, out_features=2304, bias=False)
            (1): Sigmoid()
          )
          (gate_enhancement): Sequential(
            (0): Linear(in_features=2304, out_features=2304, bias=True)
            (1): Tanh()
          )
          (fc_redu): Sequential(
            (0): Linear(in_features=2304, out_features=768, bias=False)
            (1): LayerNorm((768,), eps=1e-05, elementwise_affine=True)
            (2): ReLU(inplace=True)
          )
          (residual_fc1): Sequential(
            (0): Linear(in_features=768, out_features=768, bias=False)
            (1): LayerNorm((768,), eps=1e-05, elementwise_affine=True)
          )
          (residual_fc2): Sequential(
            (0): Linear(in_features=768, out_features=768, bias=False)
            (1): LayerNorm((768,), eps=1e-05, elementwise_affine=True)
          )
          (residual_fc3): Sequential(
            (0): Linear(in_features=768, out_features=768, bias=False)
            (1): LayerNorm((768,), eps=1e-05, elementwise_affine=True)
          )
          (residual_fusion): Sequential(
            (0): Linear(in_features=2304, out_features=768, bias=False)
            (1): LayerNorm((768,), eps=1e-05, elementwise_affine=True)
          )
          (fc1): Linear(in_features=768, out_features=1, bias=True)
          (fc2): Linear(in_features=768, out_features=1, bias=True)
          (fc3): Linear(in_features=768, out_features=1, bias=True)
          (attention_fusion): Sequential(
            (0): Linear(in_features=3, out_features=1, bias=True)
            (1): Sigmoid()
          )
        )
        (stage1_enhancement): Sequential(
          (0): Linear(in_features=768, out_features=768, bias=True)
          (1): LayerNorm((768,), eps=1e-05, elementwise_affine=True)
          (2): ReLU(inplace=True)
          (3): Linear(in_features=768, out_features=192, bias=True)
          (4): ReLU(inplace=True)
          (5): Linear(in_features=192, out_features=768, bias=True)
          (6): Sigmoid()
        )
        (input4_preprocessing): Sequential(
          (0): Linear(in_features=768, out_features=768, bias=True)
          (1): LayerNorm((768,), eps=1e-05, elementwise_affine=True)
          (2): ReLU(inplace=True)
          (3): Linear(in_features=768, out_features=768, bias=True)
          (4): LayerNorm((768,), eps=1e-05, elementwise_affine=True)
        )
        (cross_stage_attention): Sequential(
          (0): Linear(in_features=768, out_features=96, bias=True)
          (1): ReLU(inplace=True)
          (2): Linear(in_features=96, out_features=768, bias=True)
          (3): Sigmoid()
        )
        (adaptive_fusion_weight): Sequential(
          (0): Linear(in_features=1536, out_features=192, bias=True)
          (1): ReLU(inplace=True)
          (2): Linear(in_features=192, out_features=2, bias=True)
          (3): Softmax(dim=-1)
        )
        (stage2_dff): InnovativeDFF(
          (avg_pool1): AdaptiveAvgPool1d(output_size=1)
          (avg_pool2): AdaptiveAvgPool1d(output_size=2)
          (avg_pool3): AdaptiveAvgPool1d(output_size=4)
          (fc_atten1): Sequential(
            (0): Linear(in_features=1536, out_features=1536, bias=False)
            (1): Sigmoid()
          )
          (fc_atten2): Sequential(
            (0): Linear(in_features=1536, out_features=1536, bias=False)
            (1): Sigmoid()
          )
          (fc_atten3): Sequential(
            (0): Linear(in_features=1536, out_features=1536, bias=False)
            (1): Sigmoid()
          )
          (gate_fc): Sequential(
            (0): Linear(in_features=1536, out_features=1536, bias=False)
            (1): Sigmoid()
          )
          (fc_redu): Linear(in_features=1536, out_features=768, bias=False)
          (residual_fc): Linear(in_features=768, out_features=768, bias=False)
          (fc1): Linear(in_features=768, out_features=1, bias=True)
          (fc2): Linear(in_features=768, out_features=1, bias=True)
          (nonlin): Sigmoid()
        )
        (memory_input1): Linear(in_features=768, out_features=768, bias=False)
        (memory_input4): Linear(in_features=768, out_features=768, bias=False)
        (memory_fusion): Sequential(
          (0): Linear(in_features=1536, out_features=768, bias=False)
          (1): LayerNorm((768,), eps=1e-05, elementwise_affine=True)
        )
        (global_context): Sequential(
          (0): Linear(in_features=768, out_features=384, bias=True)
          (1): ReLU(inplace=True)
          (2): Linear(in_features=384, out_features=768, bias=True)
          (3): Sigmoid()
        )
        (final_refinement): Sequential(
          (0): Linear(in_features=768, out_features=768, bias=True)
          (1): LayerNorm((768,), eps=1e-05, elementwise_affine=True)
          (2): ReLU(inplace=True)
          (3): Linear(in_features=768, out_features=768, bias=True)
          (4): LayerNorm((768,), eps=1e-05, elementwise_affine=True)
        )
      )
      (gated_enhancement): GatedModalityEnhancement(
        (rgb_gating): ModalityGatingUnit(
          (cross_modal_attention): CrossModalAttentionGate(
            (q_proj): Linear(in_features=768, out_features=768, bias=False)
            (k_proj): Linear(in_features=768, out_features=768, bias=False)
            (v_proj): Linear(in_features=768, out_features=768, bias=False)
            (out_proj): Linear(in_features=768, out_features=768, bias=True)
            (dropout): Dropout(p=0.1, inplace=False)
          )
          (channel_gate): Sequential(
            (0): Linear(in_features=768, out_features=192, bias=True)
            (1): ReLU(inplace=True)
            (2): Linear(in_features=192, out_features=768, bias=True)
            (3): Sigmoid()
          )
          (spatial_gate): Sequential(
            (0): Linear(in_features=1536, out_features=768, bias=True)
            (1): ReLU(inplace=True)
            (2): Linear(in_features=768, out_features=1, bias=True)
            (3): Sigmoid()
          )
          (feature_fusion): Sequential(
            (0): Linear(in_features=1536, out_features=1536, bias=True)
            (1): LayerNorm((1536,), eps=1e-05, elementwise_affine=True)
            (2): ReLU(inplace=True)
            (3): Linear(in_features=1536, out_features=768, bias=True)
            (4): LayerNorm((768,), eps=1e-05, elementwise_affine=True)
          )
          (adaptive_weight): Sequential(
            (0): Linear(in_features=1536, out_features=384, bias=True)
            (1): ReLU(inplace=True)
            (2): Linear(in_features=384, out_features=2, bias=True)
            (3): Softmax(dim=-1)
          )
        )
        (nir_gating): ModalityGatingUnit(
          (cross_modal_attention): CrossModalAttentionGate(
            (q_proj): Linear(in_features=768, out_features=768, bias=False)
            (k_proj): Linear(in_features=768, out_features=768, bias=False)
            (v_proj): Linear(in_features=768, out_features=768, bias=False)
            (out_proj): Linear(in_features=768, out_features=768, bias=True)
            (dropout): Dropout(p=0.1, inplace=False)
          )
          (channel_gate): Sequential(
            (0): Linear(in_features=768, out_features=192, bias=True)
            (1): ReLU(inplace=True)
            (2): Linear(in_features=192, out_features=768, bias=True)
            (3): Sigmoid()
          )
          (spatial_gate): Sequential(
            (0): Linear(in_features=1536, out_features=768, bias=True)
            (1): ReLU(inplace=True)
            (2): Linear(in_features=768, out_features=1, bias=True)
            (3): Sigmoid()
          )
          (feature_fusion): Sequential(
            (0): Linear(in_features=1536, out_features=1536, bias=True)
            (1): LayerNorm((1536,), eps=1e-05, elementwise_affine=True)
            (2): ReLU(inplace=True)
            (3): Linear(in_features=1536, out_features=768, bias=True)
            (4): LayerNorm((768,), eps=1e-05, elementwise_affine=True)
          )
          (adaptive_weight): Sequential(
            (0): Linear(in_features=1536, out_features=384, bias=True)
            (1): ReLU(inplace=True)
            (2): Linear(in_features=384, out_features=2, bias=True)
            (3): Softmax(dim=-1)
          )
        )
        (tir_gating): ModalityGatingUnit(
          (cross_modal_attention): CrossModalAttentionGate(
            (q_proj): Linear(in_features=768, out_features=768, bias=False)
            (k_proj): Linear(in_features=768, out_features=768, bias=False)
            (v_proj): Linear(in_features=768, out_features=768, bias=False)
            (out_proj): Linear(in_features=768, out_features=768, bias=True)
            (dropout): Dropout(p=0.1, inplace=False)
          )
          (channel_gate): Sequential(
            (0): Linear(in_features=768, out_features=192, bias=True)
            (1): ReLU(inplace=True)
            (2): Linear(in_features=192, out_features=768, bias=True)
            (3): Sigmoid()
          )
          (spatial_gate): Sequential(
            (0): Linear(in_features=1536, out_features=768, bias=True)
            (1): ReLU(inplace=True)
            (2): Linear(in_features=768, out_features=1, bias=True)
            (3): Sigmoid()
          )
          (feature_fusion): Sequential(
            (0): Linear(in_features=1536, out_features=1536, bias=True)
            (1): LayerNorm((1536,), eps=1e-05, elementwise_affine=True)
            (2): ReLU(inplace=True)
            (3): Linear(in_features=1536, out_features=768, bias=True)
            (4): LayerNorm((768,), eps=1e-05, elementwise_affine=True)
          )
          (adaptive_weight): Sequential(
            (0): Linear(in_features=1536, out_features=384, bias=True)
            (1): ReLU(inplace=True)
            (2): Linear(in_features=384, out_features=2, bias=True)
            (3): Softmax(dim=-1)
          )
        )
        (global_coordination): GlobalCoordinationGate(
          (interaction_net): Sequential(
            (0): Linear(in_features=2304, out_features=1536, bias=True)
            (1): LayerNorm((1536,), eps=1e-05, elementwise_affine=True)
            (2): ReLU(inplace=True)
            (3): Linear(in_features=1536, out_features=768, bias=True)
            (4): LayerNorm((768,), eps=1e-05, elementwise_affine=True)
          )
          (balance_net): Sequential(
            (0): Linear(in_features=4608, out_features=768, bias=True)
            (1): ReLU(inplace=True)
            (2): Linear(in_features=768, out_features=3, bias=True)
            (3): Softmax(dim=-1)
          )
          (global_gate): Sequential(
            (0): Linear(in_features=768, out_features=192, bias=True)
            (1): ReLU(inplace=True)
            (2): Linear(in_features=192, out_features=1, bias=True)
            (3): Sigmoid()
          )
        )
      )
    )
  )
  (pool): AdaptiveAvgPool1d(output_size=1)
  (rgb_reduce): Sequential(
    (0): LayerNorm((1024,), eps=1e-05, elementwise_affine=True)
    (1): Linear(in_features=1024, out_features=512, bias=True)
    (2): QuickGELU()
  )
  (nir_reduce): Sequential(
    (0): LayerNorm((1024,), eps=1e-05, elementwise_affine=True)
    (1): Linear(in_features=1024, out_features=512, bias=True)
    (2): QuickGELU()
  )
  (tir_reduce): Sequential(
    (0): LayerNorm((1024,), eps=1e-05, elementwise_affine=True)
    (1): Linear(in_features=1024, out_features=512, bias=True)
    (2): QuickGELU()
  )
  (generalFusion): GeneralFusion(
    (r): MultiheadAttention(
      (out_proj): NonDynamicallyQuantizableLinear(in_features=512, out_features=512, bias=True)
    )
    (n): MultiheadAttention(
      (out_proj): NonDynamicallyQuantizableLinear(in_features=512, out_features=512, bias=True)
    )
    (t): MultiheadAttention(
      (out_proj): NonDynamicallyQuantizableLinear(in_features=512, out_features=512, bias=True)
…
      (out_proj): NonDynamicallyQuantizableLinear(in_features=512, out_features=512, bias=True)
    )
    (rt): MultiheadAttention(
      (out_proj): NonDynamicallyQuantizableLinear(in_features=512, out_features=512, bias=True)
    )
    (nt): MultiheadAttention(
      (out_proj): NonDynamicallyQuantizableLinear(in_features=512, out_features=512, bias=True)
    )
    (rnt): MultiheadAttention(
      (out_proj): NonDynamicallyQuantizableLinear(in_features=512, out_features=512, bias=True)
    )
    (moe): MoM(
      (experts): ModuleList(
        (0): ExpertHead(
          (expertHead): ModuleList(
            (0): Expert(
              (mlp): Sequential(
                (0): Linear(in_features=128, out_features=128, bias=True)
                (1): QuickGELU()
                (2): BatchNorm1d(128, eps=1e-05, momentum=0.1, affine=True, track_running_stats=True)
              )
            )
            (1): Expert(
              (mlp): Sequential(
                (0): Linear(in_features=128, out_features=128, bias=True)
                (1): QuickGELU()
                (2): BatchNorm1d(128, eps=1e-05, momentum=0.1, affine=True, track_running_stats=True)
              )
            )
            (2): Expert(
              (mlp): Sequential(
                (0): Linear(in_features=128, out_features=128, bias=True)
                (1): QuickGELU()
                (2): BatchNorm1d(128, eps=1e-05, momentum=0.1, affine=True, track_running_stats=True)
              )
            )
            (3): Expert(
              (mlp): Sequential(
                (0): Linear(in_features=128, out_features=128, bias=True)
                (1): QuickGELU()
                (2): BatchNorm1d(128, eps=1e-05, momentum=0.1, affine=True, track_running_stats=True)
              )
            )
            (4): Expert(
              (mlp): Sequential(
                (0): Linear(in_features=128, out_features=128, bias=True)
                (1): QuickGELU()
                (2): BatchNorm1d(128, eps=1e-05, momentum=0.1, affine=True, track_running_stats=True)
              )
            )
            (5): Expert(
              (mlp): Sequential(
                (0): Linear(in_features=128, out_features=128, bias=True)
                (1): QuickGELU()
                (2): BatchNorm1d(128, eps=1e-05, momentum=0.1, affine=True, track_running_stats=True)
              )
            )
            (6): Expert(
              (mlp): Sequential(
                (0): Linear(in_features=128, out_features=128, bias=True)
                (1): QuickGELU()
                (2): BatchNorm1d(128, eps=1e-05, momentum=0.1, affine=True, track_running_stats=True)
              )
            )
          )
        )
        (1): ExpertHead(
          (expertHead): ModuleList(
            (0): Expert(
              (mlp): Sequential(
                (0): Linear(in_features=128, out_features=128, bias=True)
                (1): QuickGELU()
                (2): BatchNorm1d(128, eps=1e-05, momentum=0.1, affine=True, track_running_stats=True)
              )
            )
            (1): Expert(
              (mlp): Sequential(
                (0): Linear(in_features=128, out_features=128, bias=True)
                (1): QuickGELU()
                (2): BatchNorm1d(128, eps=1e-05, momentum=0.1, affine=True, track_running_stats=True)
              )
            )
            (2): Expert(
              (mlp): Sequential(
                (0): Linear(in_features=128, out_features=128, bias=True)
                (1): QuickGELU()
                (2): BatchNorm1d(128, eps=1e-05, momentum=0.1, affine=True, track_running_stats=True)
              )
            )
            (3): Expert(
              (mlp): Sequential(
                (0): Linear(in_features=128, out_features=128, bias=True)
                (1): QuickGELU()
                (2): BatchNorm1d(128, eps=1e-05, momentum=0.1, affine=True, track_running_stats=True)
              )
            )
            (4): Expert(
              (mlp): Sequential(
                (0): Linear(in_features=128, out_features=128, bias=True)
                (1): QuickGELU()
                (2): BatchNorm1d(128, eps=1e-05, momentum=0.1, affine=True, track_running_stats=True)
              )
            )
            (5): Expert(
              (mlp): Sequential(
                (0): Linear(in_features=128, out_features=128, bias=True)
                (1): QuickGELU()
                (2): BatchNorm1d(128, eps=1e-05, momentum=0.1, affine=True, track_running_stats=True)
              )
            )
            (6): Expert(
              (mlp): Sequential(
                (0): Linear(in_features=128, out_features=128, bias=True)
                (1): QuickGELU()
                (2): BatchNorm1d(128, eps=1e-05, momentum=0.1, affine=True, track_running_stats=True)
              )
            )
          )
        )
        (2): ExpertHead(
          (expertHead): ModuleList(
            (0): Expert(
              (mlp): Sequential(
                (0): Linear(in_features=128, out_features=128, bias=True)
                (1): QuickGELU()
                (2): BatchNorm1d(128, eps=1e-05, momentum=0.1, affine=True, track_running_stats=True)
              )
            )
            (1): Expert(
              (mlp): Sequential(
                (0): Linear(in_features=128, out_features=128, bias=True)
                (1): QuickGELU()
                (2): BatchNorm1d(128, eps=1e-05, momentum=0.1, affine=True, track_running_stats=True)
              )
            )
            (2): Expert(
              (mlp): Sequential(
                (0): Linear(in_features=128, out_features=128, bias=True)
                (1): QuickGELU()
                (2): BatchNorm1d(128, eps=1e-05, momentum=0.1, affine=True, track_running_stats=True)
              )
            )
            (3): Expert(
              (mlp): Sequential(
                (0): Linear(in_features=128, out_features=128, bias=True)
                (1): QuickGELU()
                (2): BatchNorm1d(128, eps=1e-05, momentum=0.1, affine=True, track_running_stats=True)
              )
            )
            (4): Expert(
              (mlp): Sequential(
                (0): Linear(in_features=128, out_features=128, bias=True)
                (1): QuickGELU()
                (2): BatchNorm1d(128, eps=1e-05, momentum=0.1, affine=True, track_running_stats=True)
              )
            )
            (5): Expert(
              (mlp): Sequential(
                (0): Linear(in_features=128, out_features=128, bias=True)
                (1): QuickGELU()
                (2): BatchNorm1d(128, eps=1e-05, momentum=0.1, affine=True, track_running_stats=True)
              )
            )
            (6): Expert(
              (mlp): Sequential(
                (0): Linear(in_features=128, out_features=128, bias=True)
                (1): QuickGELU()
                (2): BatchNorm1d(128, eps=1e-05, momentum=0.1, affine=True, track_running_stats=True)
              )
            )
          )
        )
        (3): ExpertHead(
          (expertHead): ModuleList(
            (0): Expert(
              (mlp): Sequential(
                (0): Linear(in_features=128, out_features=128, bias=True)
                (1): QuickGELU()
                (2): BatchNorm1d(128, eps=1e-05, momentum=0.1, affine=True, track_running_stats=True)
              )
            )
            (1): Expert(
              (mlp): Sequential(
                (0): Linear(in_features=128, out_features=128, bias=True)
                (1): QuickGELU()
                (2): BatchNorm1d(128, eps=1e-05, momentum=0.1, affine=True, track_running_stats=True)
              )
            )
            (2): Expert(
              (mlp): Sequential(
                (0): Linear(in_features=128, out_features=128, bias=True)
                (1): QuickGELU()
                (2): BatchNorm1d(128, eps=1e-05, momentum=0.1, affine=True, track_running_stats=True)
              )
            )
            (3): Expert(
              (mlp): Sequential(
                (0): Linear(in_features=128, out_features=128, bias=True)
                (1): QuickGELU()
                (2): BatchNorm1d(128, eps=1e-05, momentum=0.1, affine=True, track_running_stats=True)
              )
            )
            (4): Expert(
              (mlp): Sequential(
                (0): Linear(in_features=128, out_features=128, bias=True)
                (1): QuickGELU()
                (2): BatchNorm1d(128, eps=1e-05, momentum=0.1, affine=True, track_running_stats=True)
              )
            )
            (5): Expert(
              (mlp): Sequential(
                (0): Linear(in_features=128, out_features=128, bias=True)
                (1): QuickGELU()
                (2): BatchNorm1d(128, eps=1e-05, momentum=0.1, affine=True, track_running_stats=True)
              )
            )
            (6): Expert(
              (mlp): Sequential(
                (0): Linear(in_features=128, out_features=128, bias=True)
                (1): QuickGELU()
                (2): BatchNorm1d(128, eps=1e-05, momentum=0.1, affine=True, track_running_stats=True)
              )
            )
          )
        )
      )
      (gating_network): GatingNetwork(
        (gate): CrossAttention(
          (linear_re): Sequential(
            (0): Linear(in_features=3584, out_features=512, bias=True)
            (1): QuickGELU()
            (2): BatchNorm1d(512, eps=1e-05, momentum=0.1, affine=True, track_running_stats=True)
          )
          (q_): Linear(in_features=512, out_features=512, bias=False)
          (k_): Linear(in_features=512, out_features=512, bias=False)
        )
      )
    )
    (multimodal_token_se): MultiModalTokenSE(
      (rgb_aggregator): Sequential(
        (0): Linear(in_features=128, out_features=32, bias=True)
        (1): ReLU(inplace=True)
        (2): Linear(in_features=32, out_features=128, bias=True)
        (3): Sigmoid()
      )
      (nir_aggregator): Sequential(
        (0): Linear(in_features=128, out_features=32, bias=True)
        (1): ReLU(inplace=True)
        (2): Linear(in_features=32, out_features=128, bias=True)
        (3): Sigmoid()
      )
      (tir_aggregator): Sequential(
        (0): Linear(in_features=128, out_features=32, bias=True)
        (1): ReLU(inplace=True)
        (2): Linear(in_features=32, out_features=128, bias=True)
        (3): Sigmoid()
      )
      (adaptive_weighting): AdaptiveWeighting(
        (weight_net): Sequential(
          (0): Linear(in_features=384, out_features=128, bias=True)
          (1): ReLU(inplace=True)
          (2): Linear(in_features=128, out_features=384, bias=True)
          (3): Softmax(dim=-1)
        )
      )
      (global_context_net): Sequential(
        (0): Linear(in_features=384, out_features=128, bias=True)
        (1): ReLU(inplace=True)
        (2): Linear(in_features=128, out_features=128, bias=True)
        (3): Sigmoid()
      )
      (modal_balance): Sequential(
        (0): Linear(in_features=3, out_features=8, bias=True)
        (1): ReLU(inplace=True)
        (2): Linear(in_features=8, out_features=3, bias=True)
        (3): Softmax(dim=-1)
      )
      (enhancement_net): Sequential(
        (0): Linear(in_features=384, out_features=128, bias=True)
        (1): ReLU(inplace=True)
        (2): Linear(in_features=128, out_features=128, bias=True)
        (3): Sigmoid()
      )
    )
    (feature_diversifiers): ModuleList(
      (0): FeatureDiversifier(
        (diversify_net): Sequential(
          (0): Linear(in_features=512, out_features=512, bias=True)
          (1): LayerNorm((512,), eps=1e-05, elementwise_affine=True)
          (2): ReLU()
          (3): Linear(in_features=512, out_features=512, bias=True)
        )
      )
      (1): FeatureDiversifier(
        (diversify_net): Sequential(
          (0): Linear(in_features=512, out_features=512, bias=True)
          (1): LayerNorm((512,), eps=1e-05, elementwise_affine=True)
          (2): ReLU()
          (3): Linear(in_features=512, out_features=512, bias=True)
        )
      )
      (2): FeatureDiversifier(
        (diversify_net): Sequential(
          (0): Linear(in_features=512, out_features=512, bias=True)
          (1): LayerNorm((512,), eps=1e-05, elementwise_affine=True)
          (2): ReLU()
          (3): Linear(in_features=512, out_features=512, bias=True)
        )
      )
      (3): FeatureDiversifier(
        (diversify_net): Sequential(
          (0): Linear(in_features=512, out_features=512, bias=True)
          (1): LayerNorm((512,), eps=1e-05, elementwise_affine=True)
          (2): ReLU()
          (3): Linear(in_features=512, out_features=512, bias=True)
        )
      )
      (4): FeatureDiversifier(
        (diversify_net): Sequential(
          (0): Linear(in_features=512, out_features=512, bias=True)
          (1): LayerNorm((512,), eps=1e-05, elementwise_affine=True)
          (2): ReLU()
          (3): Linear(in_features=512, out_features=512, bias=True)
        )
      )
      (5): FeatureDiversifier(
        (diversify_net): Sequential(
          (0): Linear(in_features=512, out_features=512, bias=True)
          (1): LayerNorm((512,), eps=1e-05, elementwise_affine=True)
          (2): ReLU()
          (3): Linear(in_features=512, out_features=512, bias=True)
        )
      )
      (6): FeatureDiversifier(
        (diversify_net): Sequential(
          (0): Linear(in_features=512, out_features=512, bias=True)
          (1): LayerNorm((512,), eps=1e-05, elementwise_affine=True)
          (2): ReLU()
          (3): Linear(in_features=512, out_features=512, bias=True)
        )
      )
    )
  )
  (classifier_moe): Linear(in_features=3584, out_features=171, bias=False)
  (bottleneck_moe): BatchNorm1d(3584, eps=1e-05, momentum=0.1, affine=True, track_running_stats=True)
  (classifier): Linear(in_features=1536, out_features=171, bias=False)
  (bottleneck): BatchNorm1d(1536, eps=1e-05, momentum=0.1, affine=True, track_running_stats=True)
)
2025-05-27 15:04:50,404 DeMo INFO: number of parameters:220.228715
2025-05-27 15:04:50,483 DeMo.train INFO: start training
2025-05-27 15:05:10,510 DeMo.train INFO: Epoch[1] Iteration[10/54] Loss: 6.004, Acc: 0.011, Base Lr: 6.65e-05
2025-05-27 15:05:17,582 DeMo.train INFO: Epoch[1] Iteration[20/54] Loss: 5.268, Acc: 0.016, Base Lr: 6.65e-05
…
