…
cengjifusion: False mxa
rwkvbackbone: False mxa
using Transformer_type: ViT-B-16 as a backbone
Resized position embedding: %s to %s torch.Size([197, 768]) torch.Size([129, 768])
Position embedding resize to height:8 width: 16
Successfully load ckpt!
<All keys matched successfully>
Loading pretrained model from CLIP
camera number is : 8
combineway: adaptiveboq mxa
2025-05-30 15:00:18,970 DeMo INFO: combineway: adaptiveboq
UsingDiversity: False mxa
===========Building DeMo===========
2025-05-30 15:00:19,270 DeMo INFO: DeMo(
  (BACKBONE): build_transformer(
    (base): VisionTransformer(
      (conv1): Conv2d(3, 768, kernel_size=(16, 16), stride=(16, 16), bias=False)
      (ln_pre): LayerNorm((768,), eps=1e-05, elementwise_affine=True)
      (transformer): Transformer(
        (resblocks): Sequential(
          (0): ResidualAttentionBlock(
            (attn): MultiheadAttention(
              (out_proj): NonDynamicallyQuantizableLinear(in_features=768, out_features=768, bias=True)
            )
            (ln_1): LayerNorm((768,), eps=1e-05, elementwise_affine=True)
            (mlp): Sequential(
              (c_fc): Linear(in_features=768, out_features=3072, bias=True)
              (gelu): QuickGELU()
              (c_proj): Linear(in_features=3072, out_features=768, bias=True)
            )
            (ln_2): LayerNorm((768,), eps=1e-05, elementwise_affine=True)
          )
          (1): ResidualAttentionBlock(
            (attn): MultiheadAttention(
              (out_proj): NonDynamicallyQuantizableLinear(in_features=768, out_features=768, bias=True)
            )
            (ln_1): LayerNorm((768,), eps=1e-05, elementwise_affine=True)
            (mlp): Sequential(
              (c_fc): Linear(in_features=768, out_features=3072, bias=True)
              (gelu): QuickGELU()
              (c_proj): Linear(in_features=3072, out_features=768, bias=True)
            )
            (ln_2): LayerNorm((768,), eps=1e-05, elementwise_affine=True)
          )
          (2): ResidualAttentionBlock(
            (attn): MultiheadAttention(
              (out_proj): NonDynamicallyQuantizableLinear(in_features=768, out_features=768, bias=True)
            )
            (ln_1): LayerNorm((768,), eps=1e-05, elementwise_affine=True)
            (mlp): Sequential(
              (c_fc): Linear(in_features=768, out_features=3072, bias=True)
              (gelu): QuickGELU()
              (c_proj): Linear(in_features=3072, out_features=768, bias=True)
            )
            (ln_2): LayerNorm((768,), eps=1e-05, elementwise_affine=True)
          )
          (3): ResidualAttentionBlock(
            (attn): MultiheadAttention(
              (out_proj): NonDynamicallyQuantizableLinear(in_features=768, out_features=768, bias=True)
            )
            (ln_1): LayerNorm((768,), eps=1e-05, elementwise_affine=True)
            (mlp): Sequential(
              (c_fc): Linear(in_features=768, out_features=3072, bias=True)
              (gelu): QuickGELU()
              (c_proj): Linear(in_features=3072, out_features=768, bias=True)
            )
            (ln_2): LayerNorm((768,), eps=1e-05, elementwise_affine=True)
          )
          (4): ResidualAttentionBlock(
            (attn): MultiheadAttention(
              (out_proj): NonDynamicallyQuantizableLinear(in_features=768, out_features=768, bias=True)
            )
            (ln_1): LayerNorm((768,), eps=1e-05, elementwise_affine=True)
            (mlp): Sequential(
              (c_fc): Linear(in_features=768, out_features=3072, bias=True)
              (gelu): QuickGELU()
              (c_proj): Linear(in_features=3072, out_features=768, bias=True)
            )
            (ln_2): LayerNorm((768,), eps=1e-05, elementwise_affine=True)
          )
          (5): ResidualAttentionBlock(
            (attn): MultiheadAttention(
              (out_proj): NonDynamicallyQuantizableLinear(in_features=768, out_features=768, bias=True)
            )
            (ln_1): LayerNorm((768,), eps=1e-05, elementwise_affine=True)
            (mlp): Sequential(
              (c_fc): Linear(in_features=768, out_features=3072, bias=True)
              (gelu): QuickGELU()
              (c_proj): Linear(in_features=3072, out_features=768, bias=True)
            )
            (ln_2): LayerNorm((768,), eps=1e-05, elementwise_affine=True)
          )
          (6): ResidualAttentionBlock(
            (attn): MultiheadAttention(
              (out_proj): NonDynamicallyQuantizableLinear(in_features=768, out_features=768, bias=True)
            )
            (ln_1): LayerNorm((768,), eps=1e-05, elementwise_affine=True)
            (mlp): Sequential(
              (c_fc): Linear(in_features=768, out_features=3072, bias=True)
              (gelu): QuickGELU()
              (c_proj): Linear(in_features=3072, out_features=768, bias=True)
            )
            (ln_2): LayerNorm((768,), eps=1e-05, elementwise_affine=True)
          )
          (7): ResidualAttentionBlock(
            (attn): MultiheadAttention(
              (out_proj): NonDynamicallyQuantizableLinear(in_features=768, out_features=768, bias=True)
            )
            (ln_1): LayerNorm((768,), eps=1e-05, elementwise_affine=True)
            (mlp): Sequential(
              (c_fc): Linear(in_features=768, out_features=3072, bias=True)
              (gelu): QuickGELU()
              (c_proj): Linear(in_features=3072, out_features=768, bias=True)
            )
            (ln_2): LayerNorm((768,), eps=1e-05, elementwise_affine=True)
          )
          (8): ResidualAttentionBlock(
            (attn): MultiheadAttention(
              (out_proj): NonDynamicallyQuantizableLinear(in_features=768, out_features=768, bias=True)
            )
            (ln_1): LayerNorm((768,), eps=1e-05, elementwise_affine=True)
            (mlp): Sequential(
              (c_fc): Linear(in_features=768, out_features=3072, bias=True)
              (gelu): QuickGELU()
              (c_proj): Linear(in_features=3072, out_features=768, bias=True)
            )
            (ln_2): LayerNorm((768,), eps=1e-05, elementwise_affine=True)
          )
          (9): ResidualAttentionBlock(
            (attn): MultiheadAttention(
              (out_proj): NonDynamicallyQuantizableLinear(in_features=768, out_features=768, bias=True)
            )
            (ln_1): LayerNorm((768,), eps=1e-05, elementwise_affine=True)
            (mlp): Sequential(
              (c_fc): Linear(in_features=768, out_features=3072, bias=True)
              (gelu): QuickGELU()
              (c_proj): Linear(in_features=3072, out_features=768, bias=True)
            )
            (ln_2): LayerNorm((768,), eps=1e-05, elementwise_affine=True)
          )
          (10): ResidualAttentionBlock(
            (attn): MultiheadAttention(
              (out_proj): NonDynamicallyQuantizableLinear(in_features=768, out_features=768, bias=True)
            )
            (ln_1): LayerNorm((768,), eps=1e-05, elementwise_affine=True)
            (mlp): Sequential(
              (c_fc): Linear(in_features=768, out_features=3072, bias=True)
              (gelu): QuickGELU()
              (c_proj): Linear(in_features=3072, out_features=768, bias=True)
            )
            (ln_2): LayerNorm((768,), eps=1e-05, elementwise_affine=True)
          )
          (11): ResidualAttentionBlock(
            (attn): MultiheadAttention(
              (out_proj): NonDynamicallyQuantizableLinear(in_features=768, out_features=768, bias=True)
            )
            (ln_1): LayerNorm((768,), eps=1e-05, elementwise_affine=True)
            (mlp): Sequential(
              (c_fc): Linear(in_features=768, out_features=3072, bias=True)
              (gelu): QuickGELU()
              (c_proj): Linear(in_features=3072, out_features=768, bias=True)
            )
            (ln_2): LayerNorm((768,), eps=1e-05, elementwise_affine=True)
          )
        )
      )
      (ln_post): LayerNorm((768,), eps=1e-05, elementwise_affine=True)
    )
  )
  (pool): AdaptiveAvgPool1d(output_size=1)
  (rgb_reduce): Sequential(
    (0): LayerNorm((1024,), eps=1e-05, elementwise_affine=True)
    (1): Linear(in_features=1024, out_features=512, bias=True)
    (2): QuickGELU()
  )
  (nir_reduce): Sequential(
    (0): LayerNorm((1024,), eps=1e-05, elementwise_affine=True)
    (1): Linear(in_features=1024, out_features=512, bias=True)
    (2): QuickGELU()
  )
  (tir_reduce): Sequential(
    (0): LayerNorm((1024,), eps=1e-05, elementwise_affine=True)
    (1): Linear(in_features=1024, out_features=512, bias=True)
    (2): QuickGELU()
  )
  (generalFusion): GeneralFusion(
    (moe): MoM(
      (experts): ModuleList(
        (0): ExpertHead(
          (expertHead): ModuleList(
            (0): Expert(
              (mlp): Sequential(
                (0): Linear(in_features=64, out_features=64, bias=True)
                (1): QuickGELU()
                (2): BatchNorm1d(64, eps=1e-05, momentum=0.1, affine=True, track_running_stats=True)
              )
            )
            (1): Expert(
              (mlp): Sequential(
                (0): Linear(in_features=64, out_features=64, bias=True)
                (1): QuickGELU()
                (2): BatchNorm1d(64, eps=1e-05, momentum=0.1, affine=True, track_running_stats=True)
              )
            )
            (2): Expert(
              (mlp): Sequential(
                (0): Linear(in_features=64, out_features=64, bias=True)
                (1): QuickGELU()
                (2): BatchNorm1d(64, eps=1e-05, momentum=0.1, affine=True, track_running_stats=True)
              )
            )
            (3): Expert(
              (mlp): Sequential(
                (0): Linear(in_features=64, out_features=64, bias=True)
                (1): QuickGELU()
                (2): BatchNorm1d(64, eps=1e-05, momentum=0.1, affine=True, track_running_stats=True)
              )
            )
            (4): Expert(
              (mlp): Sequential(
                (0): Linear(in_features=64, out_features=64, bias=True)
                (1): QuickGELU()
                (2): BatchNorm1d(64, eps=1e-05, momentum=0.1, affine=True, track_running_stats=True)
              )
            )
            (5): Expert(
              (mlp): Sequential(
                (0): Linear(in_features=64, out_features=64, bias=True)
                (1): QuickGELU()
                (2): BatchNorm1d(64, eps=1e-05, momentum=0.1, affine=True, track_running_stats=True)
              )
            )
            (6): Expert(
              (mlp): Sequential(
                (0): Linear(in_features=64, out_features=64, bias=True)
                (1): QuickGELU()
                (2): BatchNorm1d(64, eps=1e-05, momentum=0.1, affine=True, track_running_stats=True)
              )
            )
          )
        )
        (1): ExpertHead(
          (expertHead): ModuleList(
            (0): Expert(
              (mlp): Sequential(
                (0): Linear(in_features=64, out_features=64, bias=True)
                (1): QuickGELU()
                (2): BatchNorm1d(64, eps=1e-05, momentum=0.1, affine=True, track_running_stats=True)
              )
            )
            (1): Expert(
              (mlp): Sequential(
                (0): Linear(in_features=64, out_features=64, bias=True)
                (1): QuickGELU()
                (2): BatchNorm1d(64, eps=1e-05, momentum=0.1, affine=True, track_running_stats=True)
              )
            )
            (2): Expert(
              (mlp): Sequential(
                (0): Linear(in_features=64, out_features=64, bias=True)
                (1): QuickGELU()
                (2): BatchNorm1d(64, eps=1e-05, momentum=0.1, affine=True, track_running_stats=True)
              )
            )
            (3): Expert(
              (mlp): Sequential(
                (0): Linear(in_features=64, out_features=64, bias=True)
                (1): QuickGELU()
                (2): BatchNorm1d(64, eps=1e-05, momentum=0.1, affine=True, track_running_stats=True)
              )
            )
            (4): Expert(
              (mlp): Sequential(
                (0): Linear(in_features=64, out_features=64, bias=True)
                (1): QuickGELU()
                (2): BatchNorm1d(64, eps=1e-05, momentum=0.1, affine=True, track_running_stats=True)
              )
            )
            (5): Expert(
              (mlp): Sequential(
                (0): Linear(in_features=64, out_features=64, bias=True)
                (1): QuickGELU()
                (2): BatchNorm1d(64, eps=1e-05, momentum=0.1, affine=True, track_running_stats=True)
              )
            )
            (6): Expert(
              (mlp): Sequential(
                (0): Linear(in_features=64, out_features=64, bias=True)
                (1): QuickGELU()
                (2): BatchNorm1d(64, eps=1e-05, momentum=0.1, affine=True, track_running_stats=True)
              )
            )
          )
        )
        (2): ExpertHead(
          (expertHead): ModuleList(
            (0): Expert(
              (mlp): Sequential(
                (0): Linear(in_features=64, out_features=64, bias=True)
                (1): QuickGELU()
                (2): BatchNorm1d(64, eps=1e-05, momentum=0.1, affine=True, track_running_stats=True)
              )
            )
            (1): Expert(
              (mlp): Sequential(
                (0): Linear(in_features=64, out_features=64, bias=True)
                (1): QuickGELU()
                (2): BatchNorm1d(64, eps=1e-05, momentum=0.1, affine=True, track_running_stats=True)
              )
            )
            (2): Expert(
              (mlp): Sequential(
                (0): Linear(in_features=64, out_features=64, bias=True)
                (1): QuickGELU()
                (2): BatchNorm1d(64, eps=1e-05, momentum=0.1, affine=True, track_running_stats=True)
              )
            )
            (3): Expert(
              (mlp): Sequential(
                (0): Linear(in_features=64, out_features=64, bias=True)
                (1): QuickGELU()
                (2): BatchNorm1d(64, eps=1e-05, momentum=0.1, affine=True, track_running_stats=True)
              )
            )
            (4): Expert(
              (mlp): Sequential(
                (0): Linear(in_features=64, out_features=64, bias=True)
                (1): QuickGELU()
                (2): BatchNorm1d(64, eps=1e-05, momentum=0.1, affine=True, track_running_stats=True)
              )
            )
            (5): Expert(
              (mlp): Sequential(
                (0): Linear(in_features=64, out_features=64, bias=True)
                (1): QuickGELU()
                (2): BatchNorm1d(64, eps=1e-05, momentum=0.1, affine=True, track_running_stats=True)
              )
            )
            (6): Expert(
              (mlp): Sequential(
                (0): Linear(in_features=64, out_features=64, bias=True)
                (1): QuickGELU()
                (2): BatchNorm1d(64, eps=1e-05, momentum=0.1, affine=True, track_running_stats=True)
              )
            )
          )
        )
        (3): ExpertHead(
          (expertHead): ModuleList(
            (0): Expert(
              (mlp): Sequential(
                (0): Linear(in_features=64, out_features=64, bias=True)
                (1): QuickGELU()
                (2): BatchNorm1d(64, eps=1e-05, momentum=0.1, affine=True, track_running_stats=True)
              )
            )
            (1): Expert(
              (mlp): Sequential(
                (0): Linear(in_features=64, out_features=64, bias=True)
                (1): QuickGELU()
                (2): BatchNorm1d(64, eps=1e-05, momentum=0.1, affine=True, track_running_stats=True)
              )
            )
            (2): Expert(
              (mlp): Sequential(
                (0): Linear(in_features=64, out_features=64, bias=True)
                (1): QuickGELU()
                (2): BatchNorm1d(64, eps=1e-05, momentum=0.1, affine=True, track_running_stats=True)
              )
            )
            (3): Expert(
              (mlp): Sequential(
                (0): Linear(in_features=64, out_features=64, bias=True)
                (1): QuickGELU()
                (2): BatchNorm1d(64, eps=1e-05, momentum=0.1, affine=True, track_running_stats=True)
              )
            )
            (4): Expert(
              (mlp): Sequential(
                (0): Linear(in_features=64, out_features=64, bias=True)
                (1): QuickGELU()
                (2): BatchNorm1d(64, eps=1e-05, momentum=0.1, affine=True, track_running_stats=True)
              )
            )
            (5): Expert(
              (mlp): Sequential(
                (0): Linear(in_features=64, out_features=64, bias=True)
                (1): QuickGELU()
                (2): BatchNorm1d(64, eps=1e-05, momentum=0.1, affine=True, track_running_stats=True)
              )
            )
            (6): Expert(
              (mlp): Sequential(
                (0): Linear(in_features=64, out_features=64, bias=True)
                (1): QuickGELU()
                (2): BatchNorm1d(64, eps=1e-05, momentum=0.1, affine=True, track_running_stats=True)
              )
            )
          )
        )
        (4): ExpertHead(
          (expertHead): ModuleList(
            (0): Expert(
              (mlp): Sequential(
                (0): Linear(in_features=64, out_features=64, bias=True)
                (1): QuickGELU()
                (2): BatchNorm1d(64, eps=1e-05, momentum=0.1, affine=True, track_running_stats=True)
              )
            )
            (1): Expert(
              (mlp): Sequential(
                (0): Linear(in_features=64, out_features=64, bias=True)
                (1): QuickGELU()
                (2): BatchNorm1d(64, eps=1e-05, momentum=0.1, affine=True, track_running_stats=True)
              )
            )
            (2): Expert(
              (mlp): Sequential(
                (0): Linear(in_features=64, out_features=64, bias=True)
                (1): QuickGELU()
                (2): BatchNorm1d(64, eps=1e-05, momentum=0.1, affine=True, track_running_stats=True)
              )
            )
            (3): Expert(
              (mlp): Sequential(
                (0): Linear(in_features=64, out_features=64, bias=True)
                (1): QuickGELU()
                (2): BatchNorm1d(64, eps=1e-05, momentum=0.1, affine=True, track_running_stats=True)
              )
            )
            (4): Expert(
              (mlp): Sequential(
                (0): Linear(in_features=64, out_features=64, bias=True)
                (1): QuickGELU()
                (2): BatchNorm1d(64, eps=1e-05, momentum=0.1, affine=True, track_running_stats=True)
              )
            )
            (5): Expert(
              (mlp): Sequential(
                (0): Linear(in_features=64, out_features=64, bias=True)
                (1): QuickGELU()
                (2): BatchNorm1d(64, eps=1e-05, momentum=0.1, affine=True, track_running_stats=True)
              )
            )
            (6): Expert(
              (mlp): Sequential(
                (0): Linear(in_features=64, out_features=64, bias=True)
                (1): QuickGELU()
                (2): BatchNorm1d(64, eps=1e-05, momentum=0.1, affine=True, track_running_stats=True)
              )
            )
          )
        )
        (5): ExpertHead(
          (expertHead): ModuleList(
            (0): Expert(
              (mlp): Sequential(
                (0): Linear(in_features=64, out_features=64, bias=True)
                (1): QuickGELU()
                (2): BatchNorm1d(64, eps=1e-05, momentum=0.1, affine=True, track_running_stats=True)
              )
            )
            (1): Expert(
              (mlp): Sequential(
                (0): Linear(in_features=64, out_features=64, bias=True)
                (1): QuickGELU()
                (2): BatchNorm1d(64, eps=1e-05, momentum=0.1, affine=True, track_running_stats=True)
              )
            )
            (2): Expert(
              (mlp): Sequential(
                (0): Linear(in_features=64, out_features=64, bias=True)
                (1): QuickGELU()
                (2): BatchNorm1d(64, eps=1e-05, momentum=0.1, affine=True, track_running_stats=True)
              )
            )
            (3): Expert(
              (mlp): Sequential(
                (0): Linear(in_features=64, out_features=64, bias=True)
                (1): QuickGELU()
                (2): BatchNorm1d(64, eps=1e-05, momentum=0.1, affine=True, track_running_stats=True)
              )
            )
            (4): Expert(
              (mlp): Sequential(
                (0): Linear(in_features=64, out_features=64, bias=True)
                (1): QuickGELU()
                (2): BatchNorm1d(64, eps=1e-05, momentum=0.1, affine=True, track_running_stats=True)
              )
            )
            (5): Expert(
              (mlp): Sequential(
                (0): Linear(in_features=64, out_features=64, bias=True)
                (1): QuickGELU()
                (2): BatchNorm1d(64, eps=1e-05, momentum=0.1, affine=True, track_running_stats=True)
              )
            )
            (6): Expert(
              (mlp): Sequential(
                (0): Linear(in_features=64, out_features=64, bias=True)
                (1): QuickGELU()
                (2): BatchNorm1d(64, eps=1e-05, momentum=0.1, affine=True, track_running_stats=True)
              )
            )
          )
        )
        (6): ExpertHead(
          (expertHead): ModuleList(
            (0): Expert(
              (mlp): Sequential(
                (0): Linear(in_features=64, out_features=64, bias=True)
                (1): QuickGELU()
                (2): BatchNorm1d(64, eps=1e-05, momentum=0.1, affine=True, track_running_stats=True)
              )
            )
            (1): Expert(
              (mlp): Sequential(
                (0): Linear(in_features=64, out_features=64, bias=True)
                (1): QuickGELU()
                (2): BatchNorm1d(64, eps=1e-05, momentum=0.1, affine=True, track_running_stats=True)
              )
            )
            (2): Expert(
              (mlp): Sequential(
                (0): Linear(in_features=64, out_features=64, bias=True)
                (1): QuickGELU()
                (2): BatchNorm1d(64, eps=1e-05, momentum=0.1, affine=True, track_running_stats=True)
              )
            )
            (3): Expert(
              (mlp): Sequential(
                (0): Linear(in_features=64, out_features=64, bias=True)
                (1): QuickGELU()
                (2): BatchNorm1d(64, eps=1e-05, momentum=0.1, affine=True, track_running_stats=True)
              )
            )
            (4): Expert(
              (mlp): Sequential(
                (0): Linear(in_features=64, out_features=64, bias=True)
                (1): QuickGELU()
                (2): BatchNorm1d(64, eps=1e-05, momentum=0.1, affine=True, track_running_stats=True)
              )
            )
            (5): Expert(
              (mlp): Sequential(
                (0): Linear(in_features=64, out_features=64, bias=True)
                (1): QuickGELU()
                (2): BatchNorm1d(64, eps=1e-05, momentum=0.1, affine=True, track_running_stats=True)
              )
            )
            (6): Expert(
              (mlp): Sequential(
                (0): Linear(in_features=64, out_features=64, bias=True)
                (1): QuickGELU()
                (2): BatchNorm1d(64, eps=1e-05, momentum=0.1, affine=True, track_running_stats=True)
              )
            )
          )
        )
        (7): ExpertHead(
          (expertHead): ModuleList(
            (0): Expert(
              (mlp): Sequential(
                (0): Linear(in_features=64, out_features=64, bias=True)
                (1): QuickGELU()
                (2): BatchNorm1d(64, eps=1e-05, momentum=0.1, affine=True, track_running_stats=True)
              )
            )
            (1): Expert(
              (mlp): Sequential(
                (0): Linear(in_features=64, out_features=64, bias=True)
                (1): QuickGELU()
                (2): BatchNorm1d(64, eps=1e-05, momentum=0.1, affine=True, track_running_stats=True)
              )
            )
            (2): Expert(
              (mlp): Sequential(
                (0): Linear(in_features=64, out_features=64, bias=True)
                (1): QuickGELU()
                (2): BatchNorm1d(64, eps=1e-05, momentum=0.1, affine=True, track_running_stats=True)
              )
            )
            (3): Expert(
              (mlp): Sequential(
                (0): Linear(in_features=64, out_features=64, bias=True)
                (1): QuickGELU()
                (2): BatchNorm1d(64, eps=1e-05, momentum=0.1, affine=True, track_running_stats=True)
              )
            )
            (4): Expert(
              (mlp): Sequential(
                (0): Linear(in_features=64, out_features=64, bias=True)
                (1): QuickGELU()
                (2): BatchNorm1d(64, eps=1e-05, momentum=0.1, affine=True, track_running_stats=True)
              )
            )
            (5): Expert(
              (mlp): Sequential(
                (0): Linear(in_features=64, out_features=64, bias=True)
                (1): QuickGELU()
                (2): BatchNorm1d(64, eps=1e-05, momentum=0.1, affine=True, track_running_stats=True)
              )
            )
            (6): Expert(
              (mlp): Sequential(
                (0): Linear(in_features=64, out_features=64, bias=True)
                (1): QuickGELU()
                (2): BatchNorm1d(64, eps=1e-05, momentum=0.1, affine=True, track_running_stats=True)
              )
            )
          )
        )
      )
      (gating_network): GatingNetwork(
        (gate): CrossAttention(
          (linear_re): Sequential(
            (0): Linear(in_features=3584, out_features=512, bias=True)
            (1): QuickGELU()
            (2): BatchNorm1d(512, eps=1e-05, momentum=0.1, affine=True, track_running_stats=True)
          )
          (q_): Linear(in_features=512, out_features=512, bias=False)
          (k_): Linear(in_features=512, out_features=512, bias=False)
        )
      )
    )
    (modalityboq): ModalitySpecificBoQ(
      (single_modal_boq): AdaptiveBoQ(
        (norm_input): LayerNorm((512,), eps=1e-05, elementwise_affine=True)
        (pos_encoding): PositionalEncoding()
        (boqs): ModuleList(
          (0): ImprovedBoQBlock(
            (encoder): TransformerEncoderLayer(
              (self_attn): MultiheadAttention(
                (out_proj): NonDynamicallyQuantizableLinear(in_features=512, out_features=512, bias=True)
              )
              (linear1): Linear(in_features=512, out_features=2048, bias=True)
              (dropout): Dropout(p=0.0, inplace=False)
              (linear2): Linear(in_features=2048, out_features=512, bias=True)
              (norm1): LayerNorm((512,), eps=1e-05, elementwise_affine=True)
              (norm2): LayerNorm((512,), eps=1e-05, elementwise_affine=True)
              (dropout1): Dropout(p=0.0, inplace=False)
              (dropout2): Dropout(p=0.0, inplace=False)
            )
            (query_projection): Linear(in_features=512, out_features=512, bias=True)
            (self_attn): MultiheadAttention(
              (out_proj): NonDynamicallyQuantizableLinear(in_features=512, out_features=512, bias=True)
            )
            (norm_q): LayerNorm((512,), eps=1e-05, elementwise_affine=True)
            (cross_attn): MultiheadAttention(
              (out_proj): NonDynamicallyQuantizableLinear(in_features=512, out_features=512, bias=True)
            )
            (norm_out): LayerNorm((512,), eps=1e-05, elementwise_affine=True)
          )
          (1): ImprovedBoQBlock(
            (encoder): TransformerEncoderLayer(
              (self_attn): MultiheadAttention(
                (out_proj): NonDynamicallyQuantizableLinear(in_features=512, out_features=512, bias=True)
              )
              (linear1): Linear(in_features=512, out_features=2048, bias=True)
              (dropout): Dropout(p=0.0, inplace=False)
              (linear2): Linear(in_features=2048, out_features=512, bias=True)
              (norm1): LayerNorm((512,), eps=1e-05, elementwise_affine=True)
              (norm2): LayerNorm((512,), eps=1e-05, elementwise_affine=True)
              (dropout1): Dropout(p=0.0, inplace=False)
              (dropout2): Dropout(p=0.0, inplace=False)
            )
            (query_projection): Linear(in_features=512, out_features=512, bias=True)
            (query_adapter): Linear(in_features=64, out_features=44, bias=True)
            (self_attn): MultiheadAttention(
              (out_proj): NonDynamicallyQuantizableLinear(in_features=512, out_features=512, bias=True)
            )
            (norm_q): LayerNorm((512,), eps=1e-05, elementwise_affine=True)
            (cross_attn): MultiheadAttention(
              (out_proj): NonDynamicallyQuantizableLinear(in_features=512, out_features=512, bias=True)
            )
            (norm_out): LayerNorm((512,), eps=1e-05, elementwise_affine=True)
          )
        )
        (adaptive_fusion): AdaptiveFusion(
          (attention_net): Sequential(
            (0): Linear(in_features=512, out_features=128, bias=True)
            (1): ReLU()
            (2): Linear(in_features=128, out_features=1, bias=True)
          )
          (final_proj): Linear(in_features=108, out_features=1, bias=True)
        )
      )
      (dual_modal_boq): AdaptiveBoQ(
        (norm_input): LayerNorm((512,), eps=1e-05, elementwise_affine=True)
        (pos_encoding): PositionalEncoding()
        (boqs): ModuleList(
          (0): ImprovedBoQBlock(
            (encoder): TransformerEncoderLayer(
              (self_attn): MultiheadAttention(
                (out_proj): NonDynamicallyQuantizableLinear(in_features=512, out_features=512, bias=True)
              )
              (linear1): Linear(in_features=512, out_features=2048, bias=True)
              (dropout): Dropout(p=0.0, inplace=False)
              (linear2): Linear(in_features=2048, out_features=512, bias=True)
              (norm1): LayerNorm((512,), eps=1e-05, elementwise_affine=True)
              (norm2): LayerNorm((512,), eps=1e-05, elementwise_affine=True)
              (dropout1): Dropout(p=0.0, inplace=False)
              (dropout2): Dropout(p=0.0, inplace=False)
            )
            (query_projection): Linear(in_features=512, out_features=512, bias=True)
            (self_attn): MultiheadAttention(
              (out_proj): NonDynamicallyQuantizableLinear(in_features=512, out_features=512, bias=True)
            )
            (norm_q): LayerNorm((512,), eps=1e-05, elementwise_affine=True)
            (cross_attn): MultiheadAttention(
              (out_proj): NonDynamicallyQuantizableLinear(in_features=512, out_features=512, bias=True)
            )
            (norm_out): LayerNorm((512,), eps=1e-05, elementwise_affine=True)
          )
          (1): ImprovedBoQBlock(
            (encoder): TransformerEncoderLayer(
              (self_attn): MultiheadAttention(
                (out_proj): NonDynamicallyQuantizableLinear(in_features=512, out_features=512, bias=True)
              )
              (linear1): Linear(in_features=512, out_features=2048, bias=True)
              (dropout): Dropout(p=0.0, inplace=False)
              (linear2): Linear(in_features=2048, out_features=512, bias=True)
              (norm1): LayerNorm((512,), eps=1e-05, elementwise_affine=True)
              (norm2): LayerNorm((512,), eps=1e-05, elementwise_affine=True)
              (dropout1): Dropout(p=0.0, inplace=False)
              (dropout2): Dropout(p=0.0, inplace=False)
            )
            (query_projection): Linear(in_features=512, out_features=512, bias=True)
            (query_adapter): Linear(in_features=76, out_features=53, bias=True)
            (self_attn): MultiheadAttention(
              (out_proj): NonDynamicallyQuantizableLinear(in_features=512, out_features=512, bias=True)
            )
            (norm_q): LayerNorm((512,), eps=1e-05, elementwise_affine=True)
            (cross_attn): MultiheadAttention(
              (out_proj): NonDynamicallyQuantizableLinear(in_features=512, out_features=512, bias=True)
            )
            (norm_out): LayerNorm((512,), eps=1e-05, elementwise_affine=True)
          )
        )
        (adaptive_fusion): AdaptiveFusion(
          (attention_net): Sequential(
            (0): Linear(in_features=512, out_features=128, bias=True)
            (1): ReLU()
            (2): Linear(in_features=128, out_features=1, bias=True)
          )
          (final_proj): Linear(in_features=129, out_features=1, bias=True)
        )
      )
      (triple_modal_boq): AdaptiveBoQ(
        (norm_input): LayerNorm((512,), eps=1e-05, elementwise_affine=True)
        (pos_encoding): PositionalEncoding()
        (boqs): ModuleList(
          (0): ImprovedBoQBlock(
            (encoder): TransformerEncoderLayer(
              (self_attn): MultiheadAttention(
                (out_proj): NonDynamicallyQuantizableLinear(in_features=512, out_features=512, bias=True)
              )
              (linear1): Linear(in_features=512, out_features=2048, bias=True)
              (dropout): Dropout(p=0.0, inplace=False)
              (linear2): Linear(in_features=2048, out_features=512, bias=True)
              (norm1): LayerNorm((512,), eps=1e-05, elementwise_affine=True)
              (norm2): LayerNorm((512,), eps=1e-05, elementwise_affine=True)
              (dropout1): Dropout(p=0.0, inplace=False)
              (dropout2): Dropout(p=0.0, inplace=False)
            )
            (query_projection): Linear(in_features=512, out_features=512, bias=True)
            (self_attn): MultiheadAttention(
              (out_proj): NonDynamicallyQuantizableLinear(in_features=512, out_features=512, bias=True)
            )
            (norm_q): LayerNorm((512,), eps=1e-05, elementwise_affine=True)
            (cross_attn): MultiheadAttention(
              (out_proj): NonDynamicallyQuantizableLinear(in_features=512, out_features=512, bias=True)
            )
            (norm_out): LayerNorm((512,), eps=1e-05, elementwise_affine=True)
          )
          (1): ImprovedBoQBlock(
            (encoder): TransformerEncoderLayer(
              (self_attn): MultiheadAttention(
                (out_proj): NonDynamicallyQuantizableLinear(in_features=512, out_features=512, bias=True)
              )
              (linear1): Linear(in_features=512, out_features=2048, bias=True)
              (dropout): Dropout(p=0.0, inplace=False)
              (linear2): Linear(in_features=2048, out_features=512, bias=True)
              (norm1): LayerNorm((512,), eps=1e-05, elementwise_affine=True)
              (norm2): LayerNorm((512,), eps=1e-05, elementwise_affine=True)
              (dropout1): Dropout(p=0.0, inplace=False)
              (dropout2): Dropout(p=0.0, inplace=False)
            )
            (query_projection): Linear(in_features=512, out_features=512, bias=True)
            (query_adapter): Linear(in_features=96, out_features=67, bias=True)
            (self_attn): MultiheadAttention(
              (out_proj): NonDynamicallyQuantizableLinear(in_features=512, out_features=512, bias=True)
            )
            (norm_q): LayerNorm((512,), eps=1e-05, elementwise_affine=True)
            (cross_attn): MultiheadAttention(
              (out_proj): NonDynamicallyQuantizableLinear(in_features=512, out_features=512, bias=True)
            )
            (norm_out): LayerNorm((512,), eps=1e-05, elementwise_affine=True)
          )
        )
        (adaptive_fusion): AdaptiveFusion(
          (attention_net): Sequential(
            (0): Linear(in_features=512, out_features=128, bias=True)
            (1): ReLU()
            (2): Linear(in_features=128, out_features=1, bias=True)
          )
          (final_proj): Linear(in_features=163, out_features=1, bias=True)
        )
      )
    )
  )
  (classifier_moe): Linear(in_features=3584, out_features=155, bias=False)
  (bottleneck_moe): BatchNorm1d(3584, eps=1e-05, momentum=0.1, affine=True, track_running_stats=True)
  (classifier_r): Linear(in_features=512, out_features=155, bias=False)
  (bottleneck_r): BatchNorm1d(512, eps=1e-05, momentum=0.1, affine=True, track_running_stats=True)
  (classifier_n): Linear(in_features=512, out_features=155, bias=False)
  (bottleneck_n): BatchNorm1d(512, eps=1e-05, momentum=0.1, affine=True, track_running_stats=True)
  (classifier_t): Linear(in_features=512, out_features=155, bias=False)
  (bottleneck_t): BatchNorm1d(512, eps=1e-05, momentum=0.1, affine=True, track_running_stats=True)
)
2025-05-30 15:00:19,272 DeMo INFO: number of parameters:124.655903
using soft triplet loss for training
label smooth on, numclasses: 155
2025-05-30 15:00:19,345 DeMo.train INFO: start training
diversityweight: 0 mxa
/home/ma1/anaconda3/envs/DeMo/lib/python3.8/site-packages/timm/models/helpers.py:7: FutureWarning: Importing from timm.models.helpers is deprecated, please import via timm.models
…
