…
  MARGIN: 0.3
  MAX_EPOCHS: 50
  MOMENTUM: 0.9
  OPTIMIZER_NAME: Adam
  RANGE_ALPHA: 0
  RANGE_BETA: 1
  RANGE_K: 2
  RANGE_LOSS_WEIGHT: 1
  RANGE_MARGIN: 0.3
  SEED: 1111
  STEPS: (40, 70)
  WARMUP_FACTOR: 0.01
  WARMUP_ITERS: 10
  WARMUP_METHOD: linear
  WEIGHT_DECAY: 0.0001
  WEIGHT_DECAY_BIAS: 0.0001
TEST:
  FEAT: 0
  FEAT_NORM: yes
  IMS_PER_BATCH: 64
  MISS: nothing
  NECK_FEAT: before
  RE_RANKING: no
  WEIGHT: 
2025-05-24 21:37:40,007 DeMo INFO: combineway: ebblockdeform
2025-05-24 21:37:40,065 DeMo INFO: DeMo(
  (BACKBONE): build_transformer_new(
    (base): VisionTransformer(
      (conv1): Conv2d(3, 768, kernel_size=(16, 16), stride=(16, 16), bias=False)
      (ln_pre): LayerNorm((768,), eps=1e-05, elementwise_affine=True)
      (transformer): Transformer(
        (resblocks): Sequential(
          (0): ResidualAttentionBlock(
            (attn): MultiheadAttention(
              (out_proj): NonDynamicallyQuantizableLinear(in_features=768, out_features=768, bias=True)
            )
            (ln_1): LayerNorm((768,), eps=1e-05, elementwise_affine=True)
            (mlp): Sequential(
              (c_fc): Linear(in_features=768, out_features=3072, bias=True)
              (gelu): QuickGELU()
              (c_proj): Linear(in_features=3072, out_features=768, bias=True)
            )
            (ln_2): LayerNorm((768,), eps=1e-05, elementwise_affine=True)
          )
          (1): ResidualAttentionBlock(
            (attn): MultiheadAttention(
              (out_proj): NonDynamicallyQuantizableLinear(in_features=768, out_features=768, bias=True)
            )
            (ln_1): LayerNorm((768,), eps=1e-05, elementwise_affine=True)
            (mlp): Sequential(
              (c_fc): Linear(in_features=768, out_features=3072, bias=True)
              (gelu): QuickGELU()
              (c_proj): Linear(in_features=3072, out_features=768, bias=True)
            )
            (ln_2): LayerNorm((768,), eps=1e-05, elementwise_affine=True)
          )
          (2): ResidualAttentionBlock(
            (attn): MultiheadAttention(
              (out_proj): NonDynamicallyQuantizableLinear(in_features=768, out_features=768, bias=True)
            )
            (ln_1): LayerNorm((768,), eps=1e-05, elementwise_affine=True)
            (mlp): Sequential(
              (c_fc): Linear(in_features=768, out_features=3072, bias=True)
              (gelu): QuickGELU()
              (c_proj): Linear(in_features=3072, out_features=768, bias=True)
            )
            (ln_2): LayerNorm((768,), eps=1e-05, elementwise_affine=True)
          )
          (3): ResidualAttentionBlock(
            (attn): MultiheadAttention(
              (out_proj): NonDynamicallyQuantizableLinear(in_features=768, out_features=768, bias=True)
            )
            (ln_1): LayerNorm((768,), eps=1e-05, elementwise_affine=True)
            (mlp): Sequential(
              (c_fc): Linear(in_features=768, out_features=3072, bias=True)
              (gelu): QuickGELU()
              (c_proj): Linear(in_features=3072, out_features=768, bias=True)
            )
            (ln_2): LayerNorm((768,), eps=1e-05, elementwise_affine=True)
          )
          (4): ResidualAttentionBlock(
            (attn): MultiheadAttention(
              (out_proj): NonDynamicallyQuantizableLinear(in_features=768, out_features=768, bias=True)
            )
            (ln_1): LayerNorm((768,), eps=1e-05, elementwise_affine=True)
            (mlp): Sequential(
              (c_fc): Linear(in_features=768, out_features=3072, bias=True)
              (gelu): QuickGELU()
              (c_proj): Linear(in_features=3072, out_features=768, bias=True)
            )
            (ln_2): LayerNorm((768,), eps=1e-05, elementwise_affine=True)
          )
          (5): ResidualAttentionBlock(
            (attn): MultiheadAttention(
              (out_proj): NonDynamicallyQuantizableLinear(in_features=768, out_features=768, bias=True)
            )
            (ln_1): LayerNorm((768,), eps=1e-05, elementwise_affine=True)
            (mlp): Sequential(
              (c_fc): Linear(in_features=768, out_features=3072, bias=True)
              (gelu): QuickGELU()
              (c_proj): Linear(in_features=3072, out_features=768, bias=True)
            )
            (ln_2): LayerNorm((768,), eps=1e-05, elementwise_affine=True)
          )
          (6): ResidualAttentionBlock(
            (attn): MultiheadAttention(
              (out_proj): NonDynamicallyQuantizableLinear(in_features=768, out_features=768, bias=True)
            )
            (ln_1): LayerNorm((768,), eps=1e-05, elementwise_affine=True)
            (mlp): Sequential(
              (c_fc): Linear(in_features=768, out_features=3072, bias=True)
              (gelu): QuickGELU()
              (c_proj): Linear(in_features=3072, out_features=768, bias=True)
            )
            (ln_2): LayerNorm((768,), eps=1e-05, elementwise_affine=True)
          )
          (7): ResidualAttentionBlock(
            (attn): MultiheadAttention(
              (out_proj): NonDynamicallyQuantizableLinear(in_features=768, out_features=768, bias=True)
            )
            (ln_1): LayerNorm((768,), eps=1e-05, elementwise_affine=True)
            (mlp): Sequential(
              (c_fc): Linear(in_features=768, out_features=3072, bias=True)
              (gelu): QuickGELU()
              (c_proj): Linear(in_features=3072, out_features=768, bias=True)
            )
            (ln_2): LayerNorm((768,), eps=1e-05, elementwise_affine=True)
          )
          (8): ResidualAttentionBlock(
            (attn): MultiheadAttention(
              (out_proj): NonDynamicallyQuantizableLinear(in_features=768, out_features=768, bias=True)
            )
            (ln_1): LayerNorm((768,), eps=1e-05, elementwise_affine=True)
            (mlp): Sequential(
              (c_fc): Linear(in_features=768, out_features=3072, bias=True)
              (gelu): QuickGELU()
              (c_proj): Linear(in_features=3072, out_features=768, bias=True)
            )
            (ln_2): LayerNorm((768,), eps=1e-05, elementwise_affine=True)
          )
          (9): ResidualAttentionBlock(
            (attn): MultiheadAttention(
              (out_proj): NonDynamicallyQuantizableLinear(in_features=768, out_features=768, bias=True)
            )
            (ln_1): LayerNorm((768,), eps=1e-05, elementwise_affine=True)
            (mlp): Sequential(
              (c_fc): Linear(in_features=768, out_features=3072, bias=True)
              (gelu): QuickGELU()
              (c_proj): Linear(in_features=3072, out_features=768, bias=True)
            )
            (ln_2): LayerNorm((768,), eps=1e-05, elementwise_affine=True)
          )
          (10): ResidualAttentionBlock(
            (attn): MultiheadAttention(
              (out_proj): NonDynamicallyQuantizableLinear(in_features=768, out_features=768, bias=True)
            )
            (ln_1): LayerNorm((768,), eps=1e-05, elementwise_affine=True)
            (mlp): Sequential(
              (c_fc): Linear(in_features=768, out_features=3072, bias=True)
              (gelu): QuickGELU()
              (c_proj): Linear(in_features=3072, out_features=768, bias=True)
            )
            (ln_2): LayerNorm((768,), eps=1e-05, elementwise_affine=True)
          )
          (11): ResidualAttentionBlock(
            (attn): MultiheadAttention(
              (out_proj): NonDynamicallyQuantizableLinear(in_features=768, out_features=768, bias=True)
            )
            (ln_1): LayerNorm((768,), eps=1e-05, elementwise_affine=True)
            (mlp): Sequential(
              (c_fc): Linear(in_features=768, out_features=3072, bias=True)
              (gelu): QuickGELU()
              (c_proj): Linear(in_features=3072, out_features=768, bias=True)
            )
            (ln_2): LayerNorm((768,), eps=1e-05, elementwise_affine=True)
          )
        )
      )
      (ln_post): LayerNorm((768,), eps=1e-05, elementwise_affine=True)
      (triple_dff): OptimizedTripleInputDFF(
        (weight_net): Sequential(
          (0): Linear(in_features=2304, out_features=768, bias=True)
          (1): ReLU(inplace=True)
          (2): Linear(in_features=768, out_features=3, bias=True)
          (3): Softmax(dim=-1)
        )
        (fusion_net): Sequential(
          (0): Linear(in_features=2304, out_features=1536, bias=True)
          (1): LayerNorm((1536,), eps=1e-05, elementwise_affine=True)
          (2): ReLU(inplace=True)
          (3): Linear(in_features=1536, out_features=768, bias=True)
          (4): LayerNorm((768,), eps=1e-05, elementwise_affine=True)
        )
        (attention_net): Sequential(
          (0): Linear(in_features=2304, out_features=768, bias=True)
          (1): ReLU(inplace=True)
          (2): Linear(in_features=768, out_features=1, bias=True)
          (3): Sigmoid()
        )
        (residual_nets): ModuleList(
          (0): Linear(in_features=768, out_features=768, bias=False)
          (1): Linear(in_features=768, out_features=768, bias=False)
          (2): Linear(in_features=768, out_features=768, bias=False)
        )
      )
      (quad_dffs): OptimizedQuadInputDFF(
        (stage1_triple_dff): OptimizedTripleInputDFF(
          (weight_net): Sequential(
            (0): Linear(in_features=2304, out_features=768, bias=True)
            (1): ReLU(inplace=True)
            (2): Linear(in_features=768, out_features=3, bias=True)
            (3): Softmax(dim=-1)
          )
          (fusion_net): Sequential(
            (0): Linear(in_features=2304, out_features=1536, bias=True)
            (1): LayerNorm((1536,), eps=1e-05, elementwise_affine=True)
            (2): ReLU(inplace=True)
            (3): Linear(in_features=1536, out_features=768, bias=True)
            (4): LayerNorm((768,), eps=1e-05, elementwise_affine=True)
          )
          (attention_net): Sequential(
            (0): Linear(in_features=2304, out_features=768, bias=True)
            (1): ReLU(inplace=True)
            (2): Linear(in_features=768, out_features=1, bias=True)
            (3): Sigmoid()
          )
          (residual_nets): ModuleList(
            (0): Linear(in_features=768, out_features=768, bias=False)
            (1): Linear(in_features=768, out_features=768, bias=False)
            (2): Linear(in_features=768, out_features=768, bias=False)
          )
        )
        (stage1_enhancement): Sequential(
          (0): Linear(in_features=768, out_features=384, bias=True)
          (1): ReLU(inplace=True)
          (2): Linear(in_features=384, out_features=768, bias=True)
          (3): Sigmoid()
        )
        (input4_preprocessing): Sequential(
          (0): Linear(in_features=768, out_features=768, bias=True)
          (1): LayerNorm((768,), eps=1e-05, elementwise_affine=True)
        )
        (adaptive_fusion_weight): Sequential(
          (0): Linear(in_features=1536, out_features=2, bias=True)
          (1): Softmax(dim=-1)
        )
        (stage2_dff): OptimizedInnovativeDFF(
          (global_attention): Sequential(
            (0): Linear(in_features=1536, out_features=1536, bias=False)
            (1): LayerNorm((1536,), eps=1e-05, elementwise_affine=True)
            (2): Sigmoid()
          )
          (gate_fc): Sequential(
            (0): Linear(in_features=1536, out_features=1536, bias=False)
            (1): Sigmoid()
          )
          (fc_redu): Linear(in_features=1536, out_features=768, bias=False)
          (residual_fc): Linear(in_features=768, out_features=768, bias=False)
          (final_attention): Sequential(
            (0): Linear(in_features=1536, out_features=1, bias=True)
            (1): Sigmoid()
          )
        )
        (memory_fusion): Linear(in_features=1536, out_features=768, bias=False)
        (final_processing): Sequential(
          (0): Linear(in_features=768, out_features=768, bias=True)
          (1): LayerNorm((768,), eps=1e-05, elementwise_affine=True)
        )
      )
      (gated_enhancement): GatedModalityEnhancement(
        (rgb_gating): ModalityGatingUnit(
          (cross_modal_attention): CrossModalAttentionGate(
            (q_proj): Linear(in_features=768, out_features=768, bias=False)
            (k_proj): Linear(in_features=768, out_features=768, bias=False)
            (v_proj): Linear(in_features=768, out_features=768, bias=False)
            (out_proj): Linear(in_features=768, out_features=768, bias=True)
            (dropout): Dropout(p=0.1, inplace=False)
          )
          (channel_gate): Sequential(
            (0): Linear(in_features=768, out_features=192, bias=True)
            (1): ReLU(inplace=True)
            (2): Linear(in_features=192, out_features=768, bias=True)
            (3): Sigmoid()
          )
          (spatial_gate): Sequential(
            (0): Linear(in_features=1536, out_features=768, bias=True)
            (1): ReLU(inplace=True)
            (2): Linear(in_features=768, out_features=1, bias=True)
            (3): Sigmoid()
          )
          (feature_fusion): Sequential(
            (0): Linear(in_features=1536, out_features=1536, bias=True)
            (1): LayerNorm((1536,), eps=1e-05, elementwise_affine=True)
            (2): ReLU(inplace=True)
            (3): Linear(in_features=1536, out_features=768, bias=True)
            (4): LayerNorm((768,), eps=1e-05, elementwise_affine=True)
          )
          (adaptive_weight): Sequential(
            (0): Linear(in_features=1536, out_features=384, bias=True)
            (1): ReLU(inplace=True)
            (2): Linear(in_features=384, out_features=2, bias=True)
            (3): Softmax(dim=-1)
          )
        )
        (nir_gating): ModalityGatingUnit(
          (cross_modal_attention): CrossModalAttentionGate(
            (q_proj): Linear(in_features=768, out_features=768, bias=False)
            (k_proj): Linear(in_features=768, out_features=768, bias=False)
            (v_proj): Linear(in_features=768, out_features=768, bias=False)
            (out_proj): Linear(in_features=768, out_features=768, bias=True)
            (dropout): Dropout(p=0.1, inplace=False)
          )
          (channel_gate): Sequential(
            (0): Linear(in_features=768, out_features=192, bias=True)
            (1): ReLU(inplace=True)
            (2): Linear(in_features=192, out_features=768, bias=True)
            (3): Sigmoid()
          )
          (spatial_gate): Sequential(
            (0): Linear(in_features=1536, out_features=768, bias=True)
            (1): ReLU(inplace=True)
            (2): Linear(in_features=768, out_features=1, bias=True)
            (3): Sigmoid()
          )
          (feature_fusion): Sequential(
            (0): Linear(in_features=1536, out_features=1536, bias=True)
            (1): LayerNorm((1536,), eps=1e-05, elementwise_affine=True)
            (2): ReLU(inplace=True)
            (3): Linear(in_features=1536, out_features=768, bias=True)
            (4): LayerNorm((768,), eps=1e-05, elementwise_affine=True)
          )
          (adaptive_weight): Sequential(
            (0): Linear(in_features=1536, out_features=384, bias=True)
            (1): ReLU(inplace=True)
            (2): Linear(in_features=384, out_features=2, bias=True)
            (3): Softmax(dim=-1)
          )
        )
        (tir_gating): ModalityGatingUnit(
          (cross_modal_attention): CrossModalAttentionGate(
            (q_proj): Linear(in_features=768, out_features=768, bias=False)
            (k_proj): Linear(in_features=768, out_features=768, bias=False)
            (v_proj): Linear(in_features=768, out_features=768, bias=False)
            (out_proj): Linear(in_features=768, out_features=768, bias=True)
            (dropout): Dropout(p=0.1, inplace=False)
          )
          (channel_gate): Sequential(
            (0): Linear(in_features=768, out_features=192, bias=True)
            (1): ReLU(inplace=True)
            (2): Linear(in_features=192, out_features=768, bias=True)
            (3): Sigmoid()
          )
          (spatial_gate): Sequential(
            (0): Linear(in_features=1536, out_features=768, bias=True)
            (1): ReLU(inplace=True)
            (2): Linear(in_features=768, out_features=1, bias=True)
            (3): Sigmoid()
          )
          (feature_fusion): Sequential(
            (0): Linear(in_features=1536, out_features=1536, bias=True)
            (1): LayerNorm((1536,), eps=1e-05, elementwise_affine=True)
            (2): ReLU(inplace=True)
            (3): Linear(in_features=1536, out_features=768, bias=True)
            (4): LayerNorm((768,), eps=1e-05, elementwise_affine=True)
          )
          (adaptive_weight): Sequential(
            (0): Linear(in_features=1536, out_features=384, bias=True)
            (1): ReLU(inplace=True)
            (2): Linear(in_features=384, out_features=2, bias=True)
            (3): Softmax(dim=-1)
          )
        )
        (global_coordination): GlobalCoordinationGate(
          (interaction_net): Sequential(
            (0): Linear(in_features=2304, out_features=1536, bias=True)
            (1): LayerNorm((1536,), eps=1e-05, elementwise_affine=True)
            (2): ReLU(inplace=True)
            (3): Linear(in_features=1536, out_features=768, bias=True)
            (4): LayerNorm((768,), eps=1e-05, elementwise_affine=True)
          )
          (balance_net): Sequential(
            (0): Linear(in_features=4608, out_features=768, bias=True)
            (1): ReLU(inplace=True)
            (2): Linear(in_features=768, out_features=3, bias=True)
            (3): Softmax(dim=-1)
          )
          (global_gate): Sequential(
            (0): Linear(in_features=768, out_features=192, bias=True)
            (1): ReLU(inplace=True)
            (2): Linear(in_features=192, out_features=1, bias=True)
            (3): Sigmoid()
          )
        )
      )
    )
  )
  (pool): AdaptiveAvgPool1d(output_size=1)
  (rgb_reduce): Sequential(
    (0): LayerNorm((1024,), eps=1e-05, elementwise_affine=True)
    (1): Linear(in_features=1024, out_features=512, bias=True)
    (2): QuickGELU()
  )
  (nir_reduce): Sequential(
    (0): LayerNorm((1024,), eps=1e-05, elementwise_affine=True)
    (1): Linear(in_features=1024, out_features=512, bias=True)
    (2): QuickGELU()
  )
  (tir_reduce): Sequential(
    (0): LayerNorm((1024,), eps=1e-05, elementwise_affine=True)
    (1): Linear(in_features=1024, out_features=512, bias=True)
    (2): QuickGELU()
  )
  (generalFusion): GeneralFusion(
    (r): MultiheadAttention(
      (out_proj): NonDynamicallyQuantizableLinear(in_features=512, out_features=512, bias=True)
    )
    (n): MultiheadAttention(
      (out_proj): NonDynamicallyQuantizableLinear(in_features=512, out_features=512, bias=True)
    )
    (t): MultiheadAttention(
      (out_proj): NonDynamicallyQuantizableLinear(in_features=512, out_features=512, bias=True)
…
      (out_proj): NonDynamicallyQuantizableLinear(in_features=512, out_features=512, bias=True)
    )
    (rt): MultiheadAttention(
      (out_proj): NonDynamicallyQuantizableLinear(in_features=512, out_features=512, bias=True)
    )
    (nt): MultiheadAttention(
      (out_proj): NonDynamicallyQuantizableLinear(in_features=512, out_features=512, bias=True)
    )
    (rnt): MultiheadAttention(
      (out_proj): NonDynamicallyQuantizableLinear(in_features=512, out_features=512, bias=True)
    )
    (moe): MoM(
      (experts): ModuleList(
        (0): ExpertHead(
          (expertHead): ModuleList(
            (0): Expert(
              (mlp): Sequential(
                (0): Linear(in_features=64, out_features=64, bias=True)
                (1): QuickGELU()
                (2): BatchNorm1d(64, eps=1e-05, momentum=0.1, affine=True, track_running_stats=True)
              )
            )
            (1): Expert(
              (mlp): Sequential(
                (0): Linear(in_features=64, out_features=64, bias=True)
                (1): QuickGELU()
                (2): BatchNorm1d(64, eps=1e-05, momentum=0.1, affine=True, track_running_stats=True)
              )
            )
            (2): Expert(
              (mlp): Sequential(
                (0): Linear(in_features=64, out_features=64, bias=True)
                (1): QuickGELU()
                (2): BatchNorm1d(64, eps=1e-05, momentum=0.1, affine=True, track_running_stats=True)
              )
            )
            (3): Expert(
              (mlp): Sequential(
                (0): Linear(in_features=64, out_features=64, bias=True)
                (1): QuickGELU()
                (2): BatchNorm1d(64, eps=1e-05, momentum=0.1, affine=True, track_running_stats=True)
              )
            )
            (4): Expert(
              (mlp): Sequential(
                (0): Linear(in_features=64, out_features=64, bias=True)
                (1): QuickGELU()
                (2): BatchNorm1d(64, eps=1e-05, momentum=0.1, affine=True, track_running_stats=True)
              )
            )
            (5): Expert(
              (mlp): Sequential(
                (0): Linear(in_features=64, out_features=64, bias=True)
                (1): QuickGELU()
                (2): BatchNorm1d(64, eps=1e-05, momentum=0.1, affine=True, track_running_stats=True)
              )
            )
            (6): Expert(
              (mlp): Sequential(
                (0): Linear(in_features=64, out_features=64, bias=True)
                (1): QuickGELU()
                (2): BatchNorm1d(64, eps=1e-05, momentum=0.1, affine=True, track_running_stats=True)
              )
            )
          )
        )
        (1): ExpertHead(
          (expertHead): ModuleList(
            (0): Expert(
              (mlp): Sequential(
                (0): Linear(in_features=64, out_features=64, bias=True)
                (1): QuickGELU()
                (2): BatchNorm1d(64, eps=1e-05, momentum=0.1, affine=True, track_running_stats=True)
              )
            )
            (1): Expert(
              (mlp): Sequential(
                (0): Linear(in_features=64, out_features=64, bias=True)
                (1): QuickGELU()
                (2): BatchNorm1d(64, eps=1e-05, momentum=0.1, affine=True, track_running_stats=True)
              )
            )
            (2): Expert(
              (mlp): Sequential(
                (0): Linear(in_features=64, out_features=64, bias=True)
                (1): QuickGELU()
                (2): BatchNorm1d(64, eps=1e-05, momentum=0.1, affine=True, track_running_stats=True)
              )
            )
            (3): Expert(
              (mlp): Sequential(
                (0): Linear(in_features=64, out_features=64, bias=True)
                (1): QuickGELU()
                (2): BatchNorm1d(64, eps=1e-05, momentum=0.1, affine=True, track_running_stats=True)
              )
            )
            (4): Expert(
              (mlp): Sequential(
                (0): Linear(in_features=64, out_features=64, bias=True)
                (1): QuickGELU()
                (2): BatchNorm1d(64, eps=1e-05, momentum=0.1, affine=True, track_running_stats=True)
              )
            )
            (5): Expert(
              (mlp): Sequential(
                (0): Linear(in_features=64, out_features=64, bias=True)
                (1): QuickGELU()
                (2): BatchNorm1d(64, eps=1e-05, momentum=0.1, affine=True, track_running_stats=True)
              )
            )
            (6): Expert(
              (mlp): Sequential(
                (0): Linear(in_features=64, out_features=64, bias=True)
                (1): QuickGELU()
                (2): BatchNorm1d(64, eps=1e-05, momentum=0.1, affine=True, track_running_stats=True)
              )
            )
          )
        )
        (2): ExpertHead(
          (expertHead): ModuleList(
            (0): Expert(
              (mlp): Sequential(
                (0): Linear(in_features=64, out_features=64, bias=True)
                (1): QuickGELU()
                (2): BatchNorm1d(64, eps=1e-05, momentum=0.1, affine=True, track_running_stats=True)
              )
            )
            (1): Expert(
              (mlp): Sequential(
                (0): Linear(in_features=64, out_features=64, bias=True)
                (1): QuickGELU()
                (2): BatchNorm1d(64, eps=1e-05, momentum=0.1, affine=True, track_running_stats=True)
              )
            )
            (2): Expert(
              (mlp): Sequential(
                (0): Linear(in_features=64, out_features=64, bias=True)
                (1): QuickGELU()
                (2): BatchNorm1d(64, eps=1e-05, momentum=0.1, affine=True, track_running_stats=True)
              )
            )
            (3): Expert(
              (mlp): Sequential(
                (0): Linear(in_features=64, out_features=64, bias=True)
                (1): QuickGELU()
                (2): BatchNorm1d(64, eps=1e-05, momentum=0.1, affine=True, track_running_stats=True)
              )
            )
            (4): Expert(
              (mlp): Sequential(
                (0): Linear(in_features=64, out_features=64, bias=True)
                (1): QuickGELU()
                (2): BatchNorm1d(64, eps=1e-05, momentum=0.1, affine=True, track_running_stats=True)
              )
            )
            (5): Expert(
              (mlp): Sequential(
                (0): Linear(in_features=64, out_features=64, bias=True)
                (1): QuickGELU()
                (2): BatchNorm1d(64, eps=1e-05, momentum=0.1, affine=True, track_running_stats=True)
              )
            )
            (6): Expert(
              (mlp): Sequential(
                (0): Linear(in_features=64, out_features=64, bias=True)
                (1): QuickGELU()
                (2): BatchNorm1d(64, eps=1e-05, momentum=0.1, affine=True, track_running_stats=True)
              )
            )
          )
        )
        (3): ExpertHead(
          (expertHead): ModuleList(
            (0): Expert(
              (mlp): Sequential(
                (0): Linear(in_features=64, out_features=64, bias=True)
                (1): QuickGELU()
                (2): BatchNorm1d(64, eps=1e-05, momentum=0.1, affine=True, track_running_stats=True)
              )
            )
            (1): Expert(
              (mlp): Sequential(
                (0): Linear(in_features=64, out_features=64, bias=True)
                (1): QuickGELU()
                (2): BatchNorm1d(64, eps=1e-05, momentum=0.1, affine=True, track_running_stats=True)
              )
            )
            (2): Expert(
              (mlp): Sequential(
                (0): Linear(in_features=64, out_features=64, bias=True)
                (1): QuickGELU()
                (2): BatchNorm1d(64, eps=1e-05, momentum=0.1, affine=True, track_running_stats=True)
              )
            )
            (3): Expert(
              (mlp): Sequential(
                (0): Linear(in_features=64, out_features=64, bias=True)
                (1): QuickGELU()
                (2): BatchNorm1d(64, eps=1e-05, momentum=0.1, affine=True, track_running_stats=True)
              )
            )
            (4): Expert(
              (mlp): Sequential(
                (0): Linear(in_features=64, out_features=64, bias=True)
                (1): QuickGELU()
                (2): BatchNorm1d(64, eps=1e-05, momentum=0.1, affine=True, track_running_stats=True)
              )
            )
            (5): Expert(
              (mlp): Sequential(
                (0): Linear(in_features=64, out_features=64, bias=True)
                (1): QuickGELU()
                (2): BatchNorm1d(64, eps=1e-05, momentum=0.1, affine=True, track_running_stats=True)
              )
            )
            (6): Expert(
              (mlp): Sequential(
                (0): Linear(in_features=64, out_features=64, bias=True)
                (1): QuickGELU()
                (2): BatchNorm1d(64, eps=1e-05, momentum=0.1, affine=True, track_running_stats=True)
              )
            )
          )
        )
        (4): ExpertHead(
          (expertHead): ModuleList(
            (0): Expert(
              (mlp): Sequential(
                (0): Linear(in_features=64, out_features=64, bias=True)
                (1): QuickGELU()
                (2): BatchNorm1d(64, eps=1e-05, momentum=0.1, affine=True, track_running_stats=True)
              )
            )
            (1): Expert(
              (mlp): Sequential(
                (0): Linear(in_features=64, out_features=64, bias=True)
                (1): QuickGELU()
                (2): BatchNorm1d(64, eps=1e-05, momentum=0.1, affine=True, track_running_stats=True)
              )
            )
            (2): Expert(
              (mlp): Sequential(
                (0): Linear(in_features=64, out_features=64, bias=True)
                (1): QuickGELU()
                (2): BatchNorm1d(64, eps=1e-05, momentum=0.1, affine=True, track_running_stats=True)
              )
            )
            (3): Expert(
              (mlp): Sequential(
                (0): Linear(in_features=64, out_features=64, bias=True)
                (1): QuickGELU()
                (2): BatchNorm1d(64, eps=1e-05, momentum=0.1, affine=True, track_running_stats=True)
              )
            )
            (4): Expert(
              (mlp): Sequential(
                (0): Linear(in_features=64, out_features=64, bias=True)
                (1): QuickGELU()
                (2): BatchNorm1d(64, eps=1e-05, momentum=0.1, affine=True, track_running_stats=True)
              )
            )
            (5): Expert(
              (mlp): Sequential(
                (0): Linear(in_features=64, out_features=64, bias=True)
                (1): QuickGELU()
                (2): BatchNorm1d(64, eps=1e-05, momentum=0.1, affine=True, track_running_stats=True)
              )
            )
            (6): Expert(
              (mlp): Sequential(
                (0): Linear(in_features=64, out_features=64, bias=True)
                (1): QuickGELU()
                (2): BatchNorm1d(64, eps=1e-05, momentum=0.1, affine=True, track_running_stats=True)
              )
            )
          )
        )
        (5): ExpertHead(
          (expertHead): ModuleList(
            (0): Expert(
              (mlp): Sequential(
                (0): Linear(in_features=64, out_features=64, bias=True)
                (1): QuickGELU()
                (2): BatchNorm1d(64, eps=1e-05, momentum=0.1, affine=True, track_running_stats=True)
              )
            )
            (1): Expert(
              (mlp): Sequential(
                (0): Linear(in_features=64, out_features=64, bias=True)
                (1): QuickGELU()
                (2): BatchNorm1d(64, eps=1e-05, momentum=0.1, affine=True, track_running_stats=True)
              )
            )
            (2): Expert(
              (mlp): Sequential(
                (0): Linear(in_features=64, out_features=64, bias=True)
                (1): QuickGELU()
                (2): BatchNorm1d(64, eps=1e-05, momentum=0.1, affine=True, track_running_stats=True)
              )
            )
            (3): Expert(
              (mlp): Sequential(
                (0): Linear(in_features=64, out_features=64, bias=True)
                (1): QuickGELU()
                (2): BatchNorm1d(64, eps=1e-05, momentum=0.1, affine=True, track_running_stats=True)
              )
            )
            (4): Expert(
              (mlp): Sequential(
                (0): Linear(in_features=64, out_features=64, bias=True)
                (1): QuickGELU()
                (2): BatchNorm1d(64, eps=1e-05, momentum=0.1, affine=True, track_running_stats=True)
              )
            )
            (5): Expert(
              (mlp): Sequential(
                (0): Linear(in_features=64, out_features=64, bias=True)
                (1): QuickGELU()
                (2): BatchNorm1d(64, eps=1e-05, momentum=0.1, affine=True, track_running_stats=True)
              )
            )
            (6): Expert(
              (mlp): Sequential(
                (0): Linear(in_features=64, out_features=64, bias=True)
                (1): QuickGELU()
                (2): BatchNorm1d(64, eps=1e-05, momentum=0.1, affine=True, track_running_stats=True)
              )
            )
          )
        )
        (6): ExpertHead(
          (expertHead): ModuleList(
            (0): Expert(
              (mlp): Sequential(
                (0): Linear(in_features=64, out_features=64, bias=True)
                (1): QuickGELU()
                (2): BatchNorm1d(64, eps=1e-05, momentum=0.1, affine=True, track_running_stats=True)
              )
            )
            (1): Expert(
              (mlp): Sequential(
                (0): Linear(in_features=64, out_features=64, bias=True)
                (1): QuickGELU()
                (2): BatchNorm1d(64, eps=1e-05, momentum=0.1, affine=True, track_running_stats=True)
              )
            )
            (2): Expert(
              (mlp): Sequential(
                (0): Linear(in_features=64, out_features=64, bias=True)
                (1): QuickGELU()
                (2): BatchNorm1d(64, eps=1e-05, momentum=0.1, affine=True, track_running_stats=True)
              )
            )
            (3): Expert(
              (mlp): Sequential(
                (0): Linear(in_features=64, out_features=64, bias=True)
                (1): QuickGELU()
                (2): BatchNorm1d(64, eps=1e-05, momentum=0.1, affine=True, track_running_stats=True)
              )
            )
            (4): Expert(
              (mlp): Sequential(
                (0): Linear(in_features=64, out_features=64, bias=True)
                (1): QuickGELU()
                (2): BatchNorm1d(64, eps=1e-05, momentum=0.1, affine=True, track_running_stats=True)
              )
            )
            (5): Expert(
              (mlp): Sequential(
                (0): Linear(in_features=64, out_features=64, bias=True)
                (1): QuickGELU()
                (2): BatchNorm1d(64, eps=1e-05, momentum=0.1, affine=True, track_running_stats=True)
              )
            )
            (6): Expert(
              (mlp): Sequential(
                (0): Linear(in_features=64, out_features=64, bias=True)
                (1): QuickGELU()
                (2): BatchNorm1d(64, eps=1e-05, momentum=0.1, affine=True, track_running_stats=True)
              )
            )
          )
        )
        (7): ExpertHead(
          (expertHead): ModuleList(
            (0): Expert(
              (mlp): Sequential(
                (0): Linear(in_features=64, out_features=64, bias=True)
                (1): QuickGELU()
                (2): BatchNorm1d(64, eps=1e-05, momentum=0.1, affine=True, track_running_stats=True)
              )
            )
            (1): Expert(
              (mlp): Sequential(
                (0): Linear(in_features=64, out_features=64, bias=True)
                (1): QuickGELU()
                (2): BatchNorm1d(64, eps=1e-05, momentum=0.1, affine=True, track_running_stats=True)
              )
            )
            (2): Expert(
              (mlp): Sequential(
                (0): Linear(in_features=64, out_features=64, bias=True)
                (1): QuickGELU()
                (2): BatchNorm1d(64, eps=1e-05, momentum=0.1, affine=True, track_running_stats=True)
              )
            )
            (3): Expert(
              (mlp): Sequential(
                (0): Linear(in_features=64, out_features=64, bias=True)
                (1): QuickGELU()
                (2): BatchNorm1d(64, eps=1e-05, momentum=0.1, affine=True, track_running_stats=True)
              )
            )
            (4): Expert(
              (mlp): Sequential(
                (0): Linear(in_features=64, out_features=64, bias=True)
                (1): QuickGELU()
                (2): BatchNorm1d(64, eps=1e-05, momentum=0.1, affine=True, track_running_stats=True)
              )
            )
            (5): Expert(
              (mlp): Sequential(
                (0): Linear(in_features=64, out_features=64, bias=True)
                (1): QuickGELU()
                (2): BatchNorm1d(64, eps=1e-05, momentum=0.1, affine=True, track_running_stats=True)
              )
            )
            (6): Expert(
              (mlp): Sequential(
                (0): Linear(in_features=64, out_features=64, bias=True)
                (1): QuickGELU()
                (2): BatchNorm1d(64, eps=1e-05, momentum=0.1, affine=True, track_running_stats=True)
              )
            )
          )
        )
      )
      (gating_network): GatingNetwork(
        (gate): CrossAttention(
          (linear_re): Sequential(
            (0): Linear(in_features=3584, out_features=512, bias=True)
            (1): QuickGELU()
            (2): BatchNorm1d(512, eps=1e-05, momentum=0.1, affine=True, track_running_stats=True)
          )
          (q_): Linear(in_features=512, out_features=512, bias=False)
          (k_): Linear(in_features=512, out_features=512, bias=False)
        )
      )
    )
    (ebblock_r): EBlock(
      (extra_conv): Conv2d(512, 512, kernel_size=(3, 3), stride=(1, 1), padding=(1, 1), groups=512)
      (conv1): Conv2d(512, 1024, kernel_size=(1, 1), stride=(1, 1))
      (branches): ModuleList(
        (0): Branch(
          (branch): Sequential(
            (0): Conv2d(1024, 1024, kernel_size=(3, 3), stride=(1, 1), padding=(1, 1), groups=1024)
          )
        )
        (1): Branch(
          (branch): Sequential(
            (0): Conv2d(1024, 1024, kernel_size=(3, 3), stride=(1, 1), padding=(4, 4), dilation=(4, 4), groups=1024)
          )
        )
        (2): Branch(
          (branch): Sequential(
            (0): Conv2d(1024, 1024, kernel_size=(3, 3), stride=(1, 1), padding=(9, 9), dilation=(9, 9), groups=1024)
          )
        )
      )
      (sca): Sequential(
        (0): AdaptiveAvgPool2d(output_size=1)
        (1): Conv2d(512, 512, kernel_size=(1, 1), stride=(1, 1))
      )
      (sg1): SimpleGate()
      (conv3): Conv2d(512, 512, kernel_size=(1, 1), stride=(1, 1))
      (norm1): LayerNorm2d()
      (norm2): LayerNorm2d()
      (freq): FreMLP(
        (process1): Sequential(
          (0): Conv2d(512, 1024, kernel_size=(1, 1), stride=(1, 1))
          (1): LeakyReLU(negative_slope=0.1, inplace=True)
          (2): Conv2d(1024, 512, kernel_size=(1, 1), stride=(1, 1))
        )
      )
    )
    (ebblock_n): EBlock(
      (extra_conv): Conv2d(512, 512, kernel_size=(3, 3), stride=(1, 1), padding=(1, 1), groups=512)
      (conv1): Conv2d(512, 1024, kernel_size=(1, 1), stride=(1, 1))
      (branches): ModuleList(
        (0): Branch(
          (branch): Sequential(
            (0): Conv2d(1024, 1024, kernel_size=(3, 3), stride=(1, 1), padding=(1, 1), groups=1024)
          )
        )
        (1): Branch(
          (branch): Sequential(
            (0): Conv2d(1024, 1024, kernel_size=(3, 3), stride=(1, 1), padding=(4, 4), dilation=(4, 4), groups=1024)
          )
        )
        (2): Branch(
          (branch): Sequential(
            (0): Conv2d(1024, 1024, kernel_size=(3, 3), stride=(1, 1), padding=(9, 9), dilation=(9, 9), groups=1024)
          )
        )
      )
      (sca): Sequential(
        (0): AdaptiveAvgPool2d(output_size=1)
        (1): Conv2d(512, 512, kernel_size=(1, 1), stride=(1, 1))
      )
      (sg1): SimpleGate()
      (conv3): Conv2d(512, 512, kernel_size=(1, 1), stride=(1, 1))
      (norm1): LayerNorm2d()
      (norm2): LayerNorm2d()
      (freq): FreMLP(
        (process1): Sequential(
          (0): Conv2d(512, 1024, kernel_size=(1, 1), stride=(1, 1))
          (1): LeakyReLU(negative_slope=0.1, inplace=True)
          (2): Conv2d(1024, 512, kernel_size=(1, 1), stride=(1, 1))
        )
      )
    )
    (ebblock_t): EBlock(
      (extra_conv): Conv2d(512, 512, kernel_size=(3, 3), stride=(1, 1), padding=(1, 1), groups=512)
      (conv1): Conv2d(512, 1024, kernel_size=(1, 1), stride=(1, 1))
      (branches): ModuleList(
        (0): Branch(
          (branch): Sequential(
            (0): Conv2d(1024, 1024, kernel_size=(3, 3), stride=(1, 1), padding=(1, 1), groups=1024)
          )
        )
        (1): Branch(
          (branch): Sequential(
            (0): Conv2d(1024, 1024, kernel_size=(3, 3), stride=(1, 1), padding=(4, 4), dilation=(4, 4), groups=1024)
          )
        )
        (2): Branch(
          (branch): Sequential(
            (0): Conv2d(1024, 1024, kernel_size=(3, 3), stride=(1, 1), padding=(9, 9), dilation=(9, 9), groups=1024)
          )
        )
      )
      (sca): Sequential(
        (0): AdaptiveAvgPool2d(output_size=1)
        (1): Conv2d(512, 512, kernel_size=(1, 1), stride=(1, 1))
      )
      (sg1): SimpleGate()
      (conv3): Conv2d(512, 512, kernel_size=(1, 1), stride=(1, 1))
      (norm1): LayerNorm2d()
      (norm2): LayerNorm2d()
      (freq): FreMLP(
        (process1): Sequential(
          (0): Conv2d(512, 1024, kernel_size=(1, 1), stride=(1, 1))
          (1): LeakyReLU(negative_slope=0.1, inplace=True)
          (2): Conv2d(1024, 512, kernel_size=(1, 1), stride=(1, 1))
        )
      )
    )
    (deformselect): DAttentionBaseline(
      (conv_offset): Sequential(
        (0): Conv2d(1536, 512, kernel_size=(1, 1), stride=(1, 1))
        (1): GELU(approximate='none')
        (2): Conv2d(512, 512, kernel_size=(4, 4), stride=(2, 2), groups=512)
        (3): GELU(approximate='none')
        (4): Conv2d(512, 2, kernel_size=(1, 1), stride=(1, 1), bias=False)
      )
      (proj_q): Conv2d(512, 512, kernel_size=(1, 1), stride=(1, 1))
      (proj_k): Conv2d(512, 512, kernel_size=(1, 1), stride=(1, 1))
      (proj_v): Conv2d(512, 512, kernel_size=(1, 1), stride=(1, 1))
      (proj_out): Conv2d(512, 512, kernel_size=(1, 1), stride=(1, 1))
      (proj_drop): Dropout(p=0.0, inplace=False)
      (attn_drop): Dropout(p=0.0, inplace=False)
    )
  )
  (classifier_moe): Linear(in_features=3584, out_features=155, bias=False)
  (bottleneck_moe): BatchNorm1d(3584, eps=1e-05, momentum=0.1, affine=True, track_running_stats=True)
  (classifier_r): Linear(in_features=512, out_features=155, bias=False)
  (bottleneck_r): BatchNorm1d(512, eps=1e-05, momentum=0.1, affine=True, track_running_stats=True)
  (classifier_n): Linear(in_features=512, out_features=155, bias=False)
  (bottleneck_n): BatchNorm1d(512, eps=1e-05, momentum=0.1, affine=True, track_running_stats=True)
  (classifier_t): Linear(in_features=512, out_features=155, bias=False)
  (bottleneck_t): BatchNorm1d(512, eps=1e-05, momentum=0.1, affine=True, track_running_stats=True)
)
2025-05-24 21:37:40,067 DeMo INFO: number of parameters:168.615899
2025-05-24 21:37:40,161 DeMo.train INFO: start training
2025-05-24 21:38:04,636 DeMo.train INFO: Epoch[1] Iteration[10/16] Loss: 10.305, Acc: 0.009, Base Lr: 6.65e-05
2025-05-24 21:38:06,783 DeMo.train INFO: Epoch 1 done. Time per batch: 1.808[s] Speed: 35.4[samples/s]
…
